ddqn_q_network.pth (torch, 26254 bytes, 6 tensors)

fc1.weight f4 [64, 6]
-0.08206101 -0.6530487 -0.09357431 0.8032969 -0.09390633 0.16434431 0.28750232 -1.1604495
-0.0018393395 -0.01249799 0.12495729 -0.29506394 -1.2676708 0.008916217 -0.0025732496 -0.018319083
1.3703188 0.15373874 0.08171824 -1.221481 -0.23574029 -0.85639656 -0.23045059 0.03020979
-1.1657053 -0.14768083 -0.05710988 0.45173013 -0.29205832 -0.32442072 -0.38903457 -0.15439318
-0.05530321 0.4329167 0.13278921 -0.49849838 0.0885997 -0.39455616 -0.068516545 -0.48497856
0.35225692 0.38001135 -0.11891285 -0.0922365 -0.0990384 1.3227159 0.1270832 0.017533075
-0.044031724 0.0018513142 0.0014447139 2.486493 0.0015505624 0.024038255 -0.111665346 -0.15994254
-0.21804425 -1.0483698 -0.18131383 0.29562053 -0.041544754 -0.32993826 -0.37529692 -1.9218327
-0.17655887 -1.6653425 -0.21661514 0.2778626 -0.013213178 -1.1971695 -0.33293536 -0.027660059
-0.16556121 -0.40378338 -0.33426136 -0.09298078 -0.86354226 0.007889543 -0.32019493 -0.07289179
-0.29741123 0.9651643 -0.119997405 -0.097585194 -0.84959245 0.04697126 -0.16205056 -0.23201853
-1.2043506 -0.15896408 -0.26999345 0.19898158 -0.32173535 0.2326431 -0.088596284 0.10320607
-0.8421991 -0.15835576 -0.054342017 0.04176849 0.5932668 -0.23127852 -0.18942487 -0.0275328
-0.095075704 1.0379174 -0.35251912 -0.46612898 -0.7321936 -0.007622484 0.117399715 -0.44008967
-0.9905767 -0.86053514 0.0038822133 0.002151447 0.0004551558 -0.078569666 -1.3466567 -0.007789867
0.48482516 -0.26962814 0.0002162479 -0.007466258 -0.015323018 0.014585133 -0.3043671 -0.029458303
-0.53177464 -1.0474951 -0.064196326 -0.5836517 -0.5252267 -0.06786314 -0.08878453 -0.39088672
0.68808246 -0.05392146 -1.3783644 -0.029879404 0.05835352 0.037676618 1.3199493 0.15092756
0.026591614 0.049965158 -0.24558438 -0.99468297 0.106540896 0.34254825 -0.745351 0.26694626
-0.0743883 -0.27537322 -2.7475035 0.00093846174 -0.19889301 -0.44244617 -0.5029933 0.119180016
-0.19332369 -0.48804194 -0.45615593 -0.082431465 -0.15967229 1.3621794 -0.064850606 -0.18067983
-0.5383972 -0.12575248 -0.038728118 -0.025956305 0.6348115 -0.36158022 -0.73300195 -0.4068882
-0.06900869 -0.91485375 -0.7838596 0.18571845 -0.4580806 -0.23735578 -0.041887823 -0.32404038
-1.32569 0.18877314 0.02848253 0.0152769135 0.001315567 0.0769705 -3.617345 0.014404472
-0.2893948 -0.55842954 -0.18006544 -0.092569396 -0.15661012 -1.1808832 -0.41166615 -0.47653347
-0.22153471 0.782865 -0.89430743 -0.037051745 -1.5858696 -0.012165744 -0.0018089095 0.032156587
-1.6975449 -0.029509202 0.12583703 -0.16050234 -0.12392534 0.38867646 0.024397548 -0.71850795
-0.019996319 -0.0060992227 0.002398122 -0.12435255 1.3905499 0.23190638 -0.7526941 -0.053120933
-0.045641977 -0.103918985 0.8671907 -0.19731322 -0.7561232 -0.13394104 -0.1930715 -0.48359054
-0.85673505 -1.5896567 -0.16753215 -0.07565293 -0.16875744 -0.3441616 0.5329413 -0.5822739
-0.20213825 -0.20265022 -0.14012668 0.25703943 -0.4098932 -0.23196436 -0.44474572 0.19499959
-0.14885963 0.25620142 -0.11418703 -0.7797523 -0.76506305 -0.034544986 -0.04624699 -0.19325288
00000000: 9a0f a8bd 332e 27bf e3a3 bfbd dea4 4d3f
00000010: f651 c0bd e049 283e 8133 933e 9c89 94bf
00000020: fe15 f1ba 5fc4 4cbc 9ce9 ff3d 9f12 97be
00000030: 0943 a2bf 5315 123c f7a3 28bb e711 96bc
00000040: 9b66 af3f b06d 1d3e e55b a73d 7d59 9cbf
00000050: e765 71be ce3c 5bbf 3dfb 6bbe 867a f73c
00000060: d535 95bf a539 17be 0dec 69bd 2c49 e73e
00000070: ab88 95be 791a a6be 8a2f c7be 3f19 1ebe
00000080: 9e85 62bd 42a7 dd3e e5f9 073e 2e3b ffbe
00000090: c273 b53d 4403 cabe 6752 8cbd 1c4f f8be
000000a0: 055b b43e d990 c23e 9588 f3bd 7de6 bcbd
000000b0: a5d4 cabd c14e a93f 1922 023e 86a1 8f3c
000000c0: 9c5a 34bd cca7 f23a 8e5c bd3a b422 1f40
000000d0: 3e3c cb3a e0eb c43c cdb0 e4bd fac7 23be
000000e0: fe46 5fbe fb30 86bf 55aa 39be 935b 973e
000000f0: d52a 2abd abed a8be eb26 c0be 9dfe f5bf
00000100: d9cb 34be f129 d5bf 5cd0 5dbe 0244 8e3e
00000110: 167c 58bc da3c 99bf 8176 aabe 5997 e2bc
00000120: e188 29be b2bc cebe 4e24 abbe b56c bebd
00000130: 1b11 5dbf 2443 013c 97f0 a3be 4a48 95bd
00000140: 4946 98be 0215 773f 33c1 f5bd bfda c7bd
00000150: e47e 59bf f064 403d 95f0 25be 4496 6dbe
00000160: 2928 9abf 7bc7 22be 953c 8abe d4c1 4b3e
00000170: 7fba a4be fe39 6e3e f871 b5bd b45d d33d
00000180: 5c9a 57bf 0328 22be bc95 5ebd 7015 2b3d
00000190: 55e0 173f 47d4 6cbe 98f8 41be 778c e1bc
000001a0: 0db7 c2bd 7ada 843f 637d b4be 75a8 eebe
000001b0: 0a71 3bbf 08c6 f9bb 436f f03d 6f53 e1be
000001c0: 6f96 7dbf 084c 5cbf bb6c 7e3b 4bff 0c3b
000001d0: faa1 ee39 22e9 a0bd 3f5f acbf 2442 ffbb
000001e0: 013b f83e b30c 8abe 9bc0 6239 83a7 f4bb
000001f0: 650d 7bbc 7bf6 6e3c 01d6 9bbe 8a52 f1bc
00000200: 6222 08bf 5214 86bf 5d79 83bd 336a 15bf
00000210: 4275 06bf d4fb 8abd aad4 b5bd 4e22 c8be
00000220: 2c26 303f c0dc 5cbd 3f6e b0bf a7c5 f4bc
00000230: 1a04 6f3d cc52 1a3d 19f4 a83f c18c 1a3e
00000240: a8d6 d93c 44a8 4c3d 797a 7bbe 8ba3 7ebf
00000250: 1d32 da3d 7c62 af3e 53cf 3ebf 2ead 883e
00000260: e558 98bd b8fd 8cbe 19d7 2fc0 1a03 763a
00000270: 9caa 4bbe 4e88 e2be 2bc4 00bf a714 f43d
00000280: a5f6 45be a2e0 f9be 458d e9be d4d1 a8bd
00000290: 2281 23be e55b ae3f 65d0 84bd 2204 39be
000002a0: 66d4 09bf 42c5 00be 60a1 1ebd 51a2 d4bc
000002b0: 0283 223f 0b21 b9be 04a6 3bbf a653 d0be
000002c0: 6e54 8dbd db33 6abf 06ab 48bf fa2c 3e3e
000002d0: 8a89 eabe 650d 73be 9192 2bbd 9fe8 a5be
000002e0: 36b0 a9bf bf4d 413e 3254 e93c 054c 7a3c
000002f0: 1a6f ac3a b6a2 9d3d 9582 67c0 bc00 6c3c
00000300: 8e2b 94be 3df5 0ebf 1363 38be 0695 bdbd
00000310: 675e 20be 2e27 97bf e8c5 d2be 32fc f3be
00000320: ffd9 62be d769 483f 55f1 64bf 92c3 17bd
00000330: c6fd cabf d452 47bc ee18 edba a0b6 033d
00000340: 2749 d9bf 48bd f1bc 6cdb 003e ba5a 24be
00000350: 92cc fdbd 9a00 c73e 5edd c73c 23f0 37bf
00000360: 52cf a3bc fddb c7bb d029 1d3b 8dac febd
00000370: 8afd b13f de78 6d3e 8fb0 40bf 5695 59bd
00000380: 15f3 3abd 7ad3 d4bd 3600 5e3f 7a0c 4abe
00000390: 4a91 41bf d727 09be 89b4 45be 2e99 f7be
000003a0: fd52 5bbf df79 cbbf 8c8d 2bbe ecef 9abd
000003b0: c0ce 2cbe f335 b0be d76e 083f e70f 15bf
000003c0: 54fd 4ebe 8a83 4fbe 5e7d 0fbe ac9a 833e
000003d0: 86dd d1be 1188 6dbe b6b5 e3be f9ad 473e
000003e0: a96e 18be d52c 833e e4da e9bd d99d 47bf
000003f0: 2cdb 43bf 0b7f 0dbd 7c6d 3dbd 15e4 45be

fc1.bias f4 [64]
-0.94902945 -0.1638462 -0.11293835 -0.2883282 -0.43315825 -0.6398533 -0.9882464 -1.4897938
-1.9637889 -0.3065677 0.12001645 -0.5289955 0.07793975 -0.95865244 -0.014282078 -0.77392995
-0.6351681 -1.0196762 -0.6238938 1.1604404 -0.4437262 0.010286423 -0.6959656 -0.68391854
-0.64408165 -0.28815463 -0.10311923 -1.3586257 -0.7020799 -0.09416881 -0.050273348 0.46412808
0.0020389813 -0.69464093 1.5331513 -0.8393492 -1.2657886 -0.9024092 0.09637183 -0.52875966
-0.22148322 -0.64209485 -1.2539732 -1.36105 0.06668717 -1.1159507 -0.010182495 -2.0364888
-0.9915363 0.72227764 -0.14519495 -0.059607536 0.073731385 1.8625847 0.048195876 -0.665768
0.7919171 -0.19206621 -0.5326337 -0.9740415 -0.354513 -0.7875917 -0.41088894 0.005713765
00000000: 98f3 72bf 4cc7 27be 394c e7bd c19f 93be
00000010: ebc6 ddbe 6dcd 23bf b7fd 7cbf 90b1 bebf
00000020: 6f5d fbbf 71f6 9cbe 2fcb f53d 406c 07bf
00000030: e09e 9f3d 3f6a 75bf 60ff 69bc 4620 46bf
00000040: 609a 22bf c084 82bf 81b7 1fbf 5089 943f
00000050: 1530 e3be 6388 283c cd2a 32bf 4915 2fbf
00000060: 89e2 24bf 0189 93be 2d30 d3bd 72e7 adbf
00000070: 82bb 33bf 94db c0bd 6deb 4dbd 32a2 ed3e
00000080: 6ea0 053b fdd3 31bf 4d3e c43f 97df 56bf
00000090: 5c05 a2bf 4a04 67bf 985e c53d cb5c 07bf
000000a0: 7fcc 62be 5460 24bf 3282 a0bf e336 aebf
000000b0: 4893 883d 79d7 8ebf 7bd4 26bc d555 02c0
000000c0: 53d5 7dbf 30e7 383f fcad 14be 0827 74bd
000000d0: 7b00 973d 2d69 ee3f 0a69 453d c66f 2abf
000000e0: 14bb 4a3f 01ad 44be af5a 08bf c95a 79bf
000000f0: ba82 b5be 9c9f 49bf 0960 d2be 893a bb3b

fc2.weight f4 [64, 64]
0.31881452 -1.8428178 -2.5363874 0.37665138 -0.14287554 0.15562463 0.1157456 0.48968092
0.06419951 -0.08172975 -0.08943269 0.076494895 -0.36592185 -0.11455748 0.1075587 0.12432165
-0.204159 -0.01603516 -0.10162485 0.0261012 0.0801629 -0.13501619 -0.114724934 0.08412668
-0.056389615 -0.453314 -0.4998736 -0.4603875 0.29653713 -0.5151397 -0.6879974 -0.25713375
-0.422601 0.050178487 -0.3465996 -0.2798133 0.65318483 0.2549286 0.12716115 0.23557696
0.02104944 -0.03138613 0.02709592 0.03864384 0.29859132 0.10645742 -0.02521852 0.16167083
0.14869715 -1.9130279 0.0102437185 -0.63227 -0.21230528 -0.14943789 -0.94016117 0.30543786
-0.20732886 -0.90708745 -1.5615377 -0.0436021 -0.0018077195 -0.04092773 0.06576935 -0.016908018
0.04263871 0.04708247 0.022540508 -0.08707322 -0.07629215 0.11817769 -0.0049792975 -0.04444159
-0.053835772 -0.0048763715 -0.04506911 -0.15836288 -0.11661184 0.011304318 -0.0021960963 -0.011959423
0.009490597 -0.08876455 -0.14095825 -0.08357983 -0.020413898 -0.0010131152 -0.1375171 -0.109418415
-0.0068105827 0.0700039 -0.12587492 -0.100293085 -0.11725039 -0.11333937 -0.13575955 0.06245184
0.049455475 -0.19330119 0.048620693 -0.25115 -0.03247297 -0.070847504 -0.062437437 -0.13096005
0.019928604 0.06939707 -0.15197575 0.05550624 -0.14462891 -0.13158195 -0.0061747483 -0.016031776
-0.11446078 -0.0059482525 -0.1883016 0.040679254 -0.010278202 -0.13156925 -0.2150673 -0.16126032
-0.19325627 -0.20770581 0.046431486 -0.10104516 0.053647697 -0.014684165 -0.03294622 -0.13061759
0.2631767 -3.3453054 -0.6181793 -0.63827103 -0.7432116 -0.43027613 1.3600281 0.24208139
-0.16491021 0.078786194 -0.23080438 0.36153427 -1.0863338 -0.2187745 -0.08575881 -0.29528928
0.07235847 0.16401531 -0.5800921 0.98331326 0.21720597 -0.12606879 -0.08902345 -1.0072148
-0.2282171 -0.8837694 -0.3680743 0.37851074 -0.68911093 -0.77267647 0.15585142 0.46235257
-0.08015189 -0.7859608 -0.56782764 0.025476363 -0.25599355 0.62475485 0.1850584 -0.055394486
0.0054981136 -0.9720982 0.5587333 0.017630976 -0.42195138 0.30790854 -0.44776416 -0.080069
0.108168095 -0.7816134 -0.11837906 0.06404123 -0.08145424 -0.094371065 -0.3367726 0.038370863
0.07400271 0.0014046147 -0.27986416 -0.9908945 -0.07378167 0.4779425 -0.059390876 -0.096419804
0.22713172 -0.012444415 0.5299429 -0.15849598 -0.12456923 -0.024256814 0.28778523 0.057243843
-0.0952423 -0.48021865 0.045399584 0.045811746 -0.30505404 0.27881673 -1.663197 0.106688164
0.35108006 -0.44317254 0.081917584 -3.8615036 -2.9172173 -0.033041667 0.41694292 0.24183886
0.10150333 0.21254553 0.28875965 -0.23592763 0.38154832 0.03953758 -0.3018695 0.026027996
-0.025162367 -0.22231433 -3.6988356 0.15918766 0.30449346 0.29245326 -0.25712612 0.031238735
0.07994597 0.20599826 0.43729186 -0.96030515 0.11394921 0.015465079 -2.0065305 -0.05052522
0.2958772 0.12199002 0.08104404 -0.2149654 0.027113024 -0.10666193 -0.1283066 0.04119435
-3.4198143 0.26596886 -0.048187684 0.9407589 0.060160592 -0.45903704 -0.08063708 0.15164621
00000000: a83b a33e 74e1 ebbf 2c54 22c0 73d8 c03e
00000010: f74d 12be 105c 1f3e 070c ed3d 75b7 fa3e
00000020: 087b 833d ed61 a7bd 7c28 b7bd 5ba9 9c3d
00000030: 1c5a bbbe 1d9d eabd bc47 dc3d 599c fe3d
00000040: 0f0f 51be 2b5c 83bc b020 d0bd 2fd2 d53c
00000050: 722c a43d af41 0abe e8f4 eabd 9c4a ac3d
00000060: ccf8 66bd c618 e8be 6fef ffbe e9b7 ebbe
00000070: b7d3 973e 32e0 03bf 9920 30bf 09a7 83be
00000080: 295f d8be f587 4d3d 8175 b1be b043 8fbe
00000090: 1f37 273f 0086 823e 8836 023e 163b 713e
000000a0: e06f ac3c be8e 00bd 43f8 dd3c 0149 1e3d
000000b0: f6e0 983e 5906 da3d 1297 cebc 0a8d 253e
000000c0: 1144 183e 19de f4bf 45d5 273c 72dc 21bf
000000d0: 8e66 59be 3f06 19be 67ae 70bf 5a62 9c3e
000000e0: 044e 54be e236 68bf 78e0 c7bf 1e98 32bd
000000f0: 00f1 ecba d6a3 27bd 15b2 863d af82 8abc
00000100: eea5 2e3d 8cd9 403d dfa6 b83c 7253 b2bd
00000110: 0f3f 9cbd 2507 f23d 6029 a3bb 6208 36bd
00000120: e682 5cbd f8c9 9fbb 639a 38bd e129 22be
00000130: 30d2 eebd bf35 393c 62ec 0fbb 75f1 43bc
00000140: 737e 1b3c 30ca b5bd 5c57 10be e72b abbd
00000150: 0c3b a7bc 81ca 84ba 48d1 0cbe c316 e0bd
00000160: 4f2b dfbb 345e 8f3d 5be5 00be 7666 cdbd
00000170: f920 f0bd 791e e8bd 8d04 0bbe 80cd 7f3d
00000180: d391 4a3d bff0 45be 7e26 473d bc96 80be
00000190: 6102 05bd 7f18 91bd 66be 7fbd 641a 06be
000001a0: 5041 a33c 0d20 8e3d 889f 1bbe 835a 633d
000001b0: 9a19 14be 6bbd 06be 8b55 cabb 1255 83bc
000001c0: 6a6a eabd 8fe9 c2bb 22d2 40be 4a9f 263d
000001d0: e765 28bc 17ba 06be 9a3a 5cbe 6d21 25be
000001e0: f9e4 45be d5b0 54be f12e 3e3d c4f0 cebd
000001f0: b0bd 5b3d da95 70bc 9ef2 06bd 9ec0 05be
00000200: 19bf 863e 7c19 56c0 0041 1ebf bb65 23bf
00000210: 1e43 3ebf 274d dcbe 6715 ae3f 2fe4 773e
00000220: 39de 28be a85a a13d fc57 6cbe 051b b93e
00000230: fc0c 8bbf 6c06 60be 51a2 afbd 2830 97be
00000240: ad30 943d a1f3 273e ea80 14bf 6bba 7b3f
00000250: 3e6b 5e3e 2d18 01be ed51 b6bd 6aec 80bf
00000260: beb1 69be b63e 62bf 3c74 bcbe 29cc c13e
00000270: 9369 30bf 20ce 45bf 8497 1f3e 7ab9 ec3e
00000280: ad26 a4bd ba34 49bf 275d 11bf ceb3 d03c
00000290: 9611 83be efef 1f3f f37f 3d3e 54e5 62bd
000002a0: 8529 b43b 6ddb 78bf 2509 0f3f d66e 903c
000002b0: 030a d8be 30a6 9d3e 5841 e5be 37fb a3bd
000002c0: 3c87 dd3d d117 48bf b870 f2bd 0c28 833d
000002d0: 7bd1 a6bd 9e45 c1bd 756d acbe c42a 1d3d
000002e0: bc8e 973d 0c1b b83a 5b4a 8fbe 43ab 7dbf
000002f0: d81a 97bd e1b4 f43e d943 73bd bf77 c5bd
00000300: 3895 683e a9e3 4bbc 57aa 073f c54c 22be
00000310: 271e ffbd 3ab6 c6bc 9658 933e 8578 6a3d
00000320: 650e c3bd 38df f5be eaf4 393d 19a5 3b3d
00000330: 0b30 9cbe 11c1 8e3e a4e3 d4bf 537f da3d
00000340: c4c0 b33e 83e7 e2be 68c4 a73d e022 77c0
00000350: b0b3 3ac0 b356 07bd 8b79 d53e 9ba4 773e
00000360: fae0 cf3d 89a5 593e 4ed8 933e 0397 71be
00000370: 4d5a c33e 28f2 213d a48e 9abe aa38 d53c
00000380: 4f21 cebc 5ea6 63be b9b9 6cc0 1702 233e
00000390: 91e6 9b3e 6fbc 953e 09a6 83be 60e8 ff3c
000003a0: b6ba a33d 35f1 523e b8e4 df3e 8fd6 75bf
000003b0: 345e e93d 3e61 7d3c ff6a 00c0 88f3 4ebd
000003c0: 377d 973e e7d5 f93d 6bfa a53d e41f 5cbe
000003d0: 221c de3c 9271 dabd ce62 03be 68bb 283d
000003e0: 3dde 5ac0 122d 883e 7360 45bd 93d5 703f
000003f0: f46a 763d e706 ebbe 0e25 a5bd 2549 1b3e

fc2.bias f4 [64]
0.39880684 -0.06693721 -0.60930467 -0.17559943 0.026686247 -0.15224293 0.37029228 -0.034838155
0.32568157 -0.21439822 -0.020231951 -0.05595717 0.38603425 -1.3940897 0.34684741 0.13017447
0.27301434 -0.19553334 -0.1531248 0.2627159 -0.3265687 0.16441649 0.0007755948 0.33646664
0.5694585 -0.2676916 0.065000154 -0.5574405 -0.62636393 -0.10243127 -0.06569115 -0.09487329
0.31706795 0.4493025 -0.07231859 -0.6712882 -0.0012670279 -0.25179145 0.39728808 0.7678839
0.23915829 -0.096151635 -0.031893186 -0.09927982 -0.11726331 -0.16305114 -0.082148686 -0.6830158
-0.0023398176 -0.30369186 -0.2671388 -0.40974206 -0.15552188 -0.019394677 -0.35455275 -0.38537621
0.29870662 -0.19253276 -0.038769152 0.23864698 -0.085011475 -0.047775667 -0.17238812 0.037942838
00000000: 6930 cc3e 6016 89bd 64fb 1bbf 56d0 33be
00000010: 1e9d da3c 92e5 1bbe f396 bd3e 74b2 0ebd
00000020: bcbf a63e 358b 5bbe 7abd a5bc 5833 65bd
00000030: 48a6 c53e 8871 b2bf fc95 b13e 754c 053e
00000040: 89c8 8b3e e439 48be bfcc 1cbe b382 863e
00000050: 0334 a7be cc5c 283e 4951 4b3a 5b45 ac3e
00000060: 08c8 113f e00e 89be cd1e 853d 6cb4 0ebf
00000070: 6359 20bf 7cc7 d1bd 1589 86bd ed4c c2bd
00000080: bb56 a23e fa0a e63e c51b 94bd 8bd9 2bbf
00000090: 6712 a6ba cfea 80be 5869 cb3e 0a94 443f
000000a0: e9e5 743e 26eb c4bd 6ea2 02bd 3853 cbbd
000000b0: bf27 f0bd e1f6 26be 923d a8bd 20da 2ebf
000000c0: a057 19bb 807d 9bbe 6bc6 88be b6c9 d1be
000000d0: 2141 1fbe 96e1 9ebc f087 b5be 0850 c5be
000000e0: 13f0 983e 4f27 45be 67cc 1ebd e05f 743e
000000f0: 7f1a aebd 6bb0 43bd 8386 30be f369 1b3d

out.weight f4 [20, 64]
-0.45550233 0.06526403 0.0011264103 0.6783003 -0.34907427 0.11077863 -0.1048255 -0.000597723
0.16267753 -0.81551844 0.09577824 -0.5528146 0.032485366 0.4728752 -0.19984241 0.6581569
-0.22799893 0.65129596 0.14556599 0.046180513 -0.34458742 0.10820375 -0.055256218 -0.18146318
0.68239075 0.065504044 -0.29427516 -0.2784912 0.30037177 0.633657 0.21849291 0.10990176
0.046929248 0.31893244 0.22473815 0.31441814 -0.13325557 0.12937918 -0.10868684 -0.25065565
0.21249637 -0.36526588 0.021192342 0.10834883 0.049217135 -0.07213358 0.21821731 0.49594808
-0.3568919 -1.0913384 -0.09337143 -0.58376604 0.061911836 0.30669373 0.26672795 1.0869968
0.09522556 0.19641727 -0.076450095 0.28132355 -0.07309121 -0.050278552 0.055357505 1.285038
-0.42270815 0.080468215 -0.3484708 -0.06931329 0.14579602 -0.0440447 0.15455848 -0.08100781
0.0451903 -0.78815335 -0.11859961 -0.5020978 -0.05276651 -0.25002903 -0.21261092 -0.03985758
-0.27189875 0.30066547 -0.36890736 -0.25212607 0.06632523 -0.45459256 0.026772097 -0.07809365
0.77111816 -0.013299582 -0.34845567 -0.36391485 0.3155626 -0.42684826 0.25222915 -0.14673398
0.19787548 0.37457046 -0.31956857 0.4064966 -0.07947183 -0.115854375 -0.25296482 -0.23671198
0.23748581 0.28214198 0.056035846 -0.017193098 0.008712512 -0.82749593 -0.42542535 0.44735432
-0.3749589 -0.027022991 0.023353688 -0.46175125 0.07963139 -0.48282975 -0.10146625 0.95093745
0.53140163 -0.015366079 0.006440237 0.5008509 -0.054204196 0.10978851 0.061116137 0.09377924
-0.32207334 -0.015753822 -0.3476349 0.0646121 0.38736308 -0.12352586 -0.34149855 0.020775484
0.3333905 -0.72989243 -0.077527344 -0.56493163 -0.0729015 -0.32816195 -0.18145931 0.39329278
-0.36692452 0.2964364 -0.063501984 -0.021206323 0.3405488 -0.46811017 0.09982105 -0.059608344
0.28004465 -0.43373802 -0.23591876 -0.17443338 0.15798303 0.11518485 0.23061839 0.21519329
0.0789154 0.33493206 0.08700074 0.24990648 -0.10142721 0.102423914 -0.011802698 -0.19024605
0.5234546 -0.13420817 -0.08235765 -0.012806668 -0.21605021 -0.50788057 -0.72894794 0.36698878
-0.28230873 0.24858642 0.14953119 -0.4024588 0.05962895 -0.05341561 -0.25311494 0.95251584
0.39080662 -0.0693498 -0.011496991 0.17215116 0.099348515 0.042607907 -0.04944503 0.31896454
-0.1620897 -0.016348649 -0.13507982 0.049082648 0.046687305 0.077145 -0.3231141 -0.08341087
-0.024810098 -0.8542022 -0.05175164 -0.047999505 -0.33049 -0.3791389 -0.29638737 0.1813437
-0.12915498 0.3278288 0.022499584 -0.34388083 0.1607926 -0.20295687 -0.8733327 -0.06911196
0.2271781 -0.20806116 -0.12927128 -0.054691397 0.2142494 0.05006117 0.022291252 -0.17427967
0.0404074 0.16604565 0.029512055 0.06901896 -0.086249344 -0.0072158338 0.118613124 -0.38825697
0.17987423 0.11705778 0.02978374 0.07251503 -0.10676502 -0.57735825 -0.06723018 0.67304766
-0.4156941 0.10197971 -0.15841365 -0.72890604 -0.076226085 -0.42138955 -0.3227181 1.0410026
0.3442981 0.0016423545 0.09308274 0.58362085 -0.00377886 0.20843112 0.044187084 -0.09457952
00000000: 9a37 e9be 26a9 853d 0fa4 933a 17a5 2d3f
00000010: ddb9 b2be e8df e23d c0ae d6bd 83b0 1cba
00000020: f094 263e d1c5 50bf 6227 c43d 4285 0dbf
00000030: 600f 053d b31c f23e 7da3 4cbe f87c 283f
00000040: 8d78 69be 55bb 263f 400f 153e c727 3d3d
00000050: c36d b0be ed99 dd3d 5854 62bd 7cd1 39be
00000060: 29b1 2e3f fc26 863d 3cab 96be 6696 8ebe
00000070: 54ca 993e 5837 223f 9bbc 5f3e 2d14 e13d
00000080: e238 403d 1d4b a33e c221 663e 6afb a03e
00000090: 2674 08be fa7b 043e 3597 debd f055 80be
000000a0: a698 593e 2104 bbbe 909b ad3c fee5 dd3d
000000b0: e897 493d c5ba 93bd 5c74 5f3e e8ec fd3e
000000c0: 89ba b6be fab0 8bbf 8539 bfbd b171 15bf
000000d0: 4497 7d3d f606 9d3e 9190 883e b622 8b3f
000000e0: 9e05 c33d 9c21 493e de91 9cbd a409 903e
000000f0: d8b0 95bd e2f0 4dbd 8dbe 623d 207c a43f
00000100: 346d d8be 85cc a43d c46a b2be 20f4 8dbd
00000110: 8d4b 153e 3768 34bd 9444 1e3e 6ce7 a5bd
00000120: 7719 393d 6bc4 49bf 5ae4 f2bd 7b89 00bf
00000130: b221 58bd ce03 80be adb6 59be b441 23bd
00000140: 5036 8bbe d3f0 993e 6de1 bcbe ab16 81be
00000150: 86d5 873d 5bc0 e8be 2851 db3c 90ef 9fbd
00000160: 0068 453f 7de6 59bc c868 b2be 0c53 babe
00000170: 6c91 a13e db8b dabe 2e24 813e 6f41 16be
00000180: df9f 4a3e b3c7 bf3e 7e9e a3be 5320 d03e
00000190: 20c2 a2bd 0f45 edbd 9b84 81be a064 72be
000001a0: 7b2f 733e ea74 903e d885 653d 8ad8 8cbc
000001b0: edbe 0e3c c6d6 53bf 5ad1 d9be a00b e53e
000001c0: 9dfa bfbe 525f ddbc 3c50 bf3c a96a ecbe
000001d0: c815 a33d 7635 f7be 8acd cfbd a370 733f
000001e0: f009 083f 02c2 7bbc a008 d33b c437 003f
000001f0: 3805 5ebd ccd8 e03d ea54 7a3d 550f c03d
00000200: cce6 a4be 290e 81bc 34fd b1be 5953 843d
00000210: 7454 c63e 20fb fcbd e6d8 aebe 5931 aa3c
00000220: 29b2 aa3e 3bda 3abf a8c6 9ebd 5c9f 10bf
00000230: 624d 95bd d804 a8be 78d0 39be ac5d c93e
00000240: 88dd bbbe 83c6 973e 540d 82bd e2b8 adbc
00000250: 6a5c ae3e 23ac efbe fb6e cc3d e127 74bd
00000260: 0362 8f3e e912 debe b094 71be aa9e 32be
00000270: 4ec6 213e 09e6 eb3d 3a27 6c3e a15b 5c3e
00000280: 669e a13d 377c ab3e 722d b23d 7ce7 7f3e
00000290: 12b9 cfbd a1c3 d13d 1a60 41bc dccf 42be
000002a0: 1f01 063f de6d 09be 21ab a8bd 0fd3 51bc
000002b0: 443c 5dbe 7604 02bf 559c 3abf f4e5 bb3e
000002c0: c58a 90be 708d 7e3e b41e 193e 140f cebe
000002d0: 7c3d 743d 54ca 5abd 4898 81be 14d8 733f
000002e0: ce17 c83e 4507 8ebd e05d 3cbc 6548 303e
000002f0: 3c77 cb3d a185 2e3d df86 4abd 524f a33e
00000300: d8fa 25be 9aed 85bc 5d52 0abe e30a 493d
00000310: 303b 3f3d 33fe 9d3d 366f a5be 51d3 aabd
00000320: 8c3e cbbc ffac 5abf 87f9 53bd 219b 44bd
00000330: fc35 a9be 7e1e c2be 16c0 97be 2ab2 393e
00000340: 3441 04be 2dd9 a73e 0c51 b83c 2611 b0be
00000350: d1a6 243e edd3 4fbe bb92 5fbf 928a 8dbd
00000360: 60a1 683e fc0d 55be b15f 04be 1604 60bd
00000370: 3264 5b3e f10c 4d3d 259c b63c 5f76 32be
00000380: 3b82 253d df07 2a3e 44c3 f13c d059 8d3d
00000390: 7fa3 b0bd cd72 ecbb 70eb f23d 9ec9 c6be
000003a0: f330 383e fdbb ef3d 08fd f33c c382 943d
000003b0: 9ea7 dabd c0cd 13bf faaf 89bd da4c 2c3f
000003c0: dbd5 d4be bdda d03d 3037 22be 9699 3abf
000003d0: 6c1c 9cbd 5fc0 d7be 4f3b a5be 933f 853f
000003e0: d747 b03e 4644 d73a 2aa2 be3d 2d68 153f
000003f0: c0a6 77bb f86e 553e 84fd 343d e8b2 c1bd

out.bias f4 [20]
-0.017788108 -0.033415068 -0.077589676 0.045146808 0.11777325 0.0930522 0.07819998 0.0732255
0.09510531 0.07586204 0.09593384 0.089785516 0.10887172 0.10522399 0.11446773 0.14419672
0.11732725 0.14329834 0.1506264 0.15705656
00000000: 5eb8 91bc 3dde 08bd 56e7 9ebd dceb 383d
00000010: 1a33 f13d 2792 be3d 5027 a03d 40f7 953d
00000020: 93c6 c23d 8f5d 9b3d f678 c43d 78e1 b73d
00000030: 23f8 de3d ad7f d73d 0f6e ea3d 4ea8 133e
00000040: 4549 f03d cdbc 123e cf3d 1a3e 6fd3 203e
