trained_q_net.pth (torch, 25988 bytes, 6 tensors)

fc1.weight f4 [64, 5]
0.6680593 0.33970997 -0.03229021 0.6691924 0.025021076 0.09024352 -0.21772818 0.26264077
0.394238 -0.32808846 0.21808884 0.25298336 0.44717988 0.12173818 0.31701612 -0.33410326
0.55098414 0.1926666 -0.27110198 0.1989431 -0.20604768 -0.052446008 -0.18163952 0.29666853
-0.35301706 -0.20617008 -0.12628183 -0.26889724 0.042209417 -0.44170353 0.62183815 -0.27628377
0.41841564 0.4098666 0.067801796 0.5969717 0.13829821 0.38463172 0.37291926 0.057670783
-0.09345313 0.0414523 0.29150358 0.41992798 0.3424132 -0.1955095 0.2581606 0.08001822
0.22711074 -0.27257895 -0.7783017 0.05428683 -0.17733197 0.35472134 0.2225047 0.18524194
0.14143628 -0.0077797174 0.34999305 -0.31775135 -0.21077032 -0.13062537 0.2485479 -0.17632337
0.22770232 -0.093173146 0.3709153 -0.26506436 -0.26671728 -0.2667334 0.5099247 0.16171783
0.46942243 -0.2432513 -0.40751034 -0.5654003 -0.09585763 0.31454828 0.12765871 0.46853796
-0.525403 -0.06449357 0.2968087 -0.3435346 0.33976692 -0.35703322 0.4877037 -0.20344172
-0.2924556 0.23676407 0.09454435 -0.114021 0.2665704 0.30401993 -0.32430738 -0.23875311
0.4094965 -0.15090439 -0.15854454 -0.43272147 -0.6745861 0.3282223 0.07714583 -0.35097748
0.09575703 -0.30548334 -0.3794145 -0.24626382 -0.39140674 -0.2847579 0.4353758 0.07497929
0.12615016 -0.4253801 -0.30538103 -0.14885765 0.06993127 -0.3935128 -0.19269228 -0.26773274
0.0012393296 -0.16640961 -0.030990005 -0.3030452 -0.30696523 -0.2609052 -0.15308008 -0.35297716
0.37497514 -0.088755816 0.697186 0.08495689 -0.28424853 0.59420484 0.007296115 -0.17142862
-0.3712188 -0.44460216 0.12795258 -0.09769106 0.49662286 -0.34012252 0.35804862 -0.04283898
0.09441505 0.13606784 0.22390166 0.3964361 0.6284878 -0.3037405 -0.1566433 -0.00031340934
0.056341328 -0.41723973 0.47331887 -0.56822234 0.5391673 0.37913308 0.18577144 -0.017928569
0.21618989 0.29447505 0.17957494 -0.3973671 0.2913738 -0.07448245 0.0748902 0.542076
0.108217224 -0.06900366 -0.2263522 -0.021357 0.24970675 -0.1142782 -0.25516886 -0.1531451
-0.33410203 0.15949088 0.3461613 -0.42102492 -0.118446216 0.4659697 0.15562868 -0.23636799
0.30717424 0.14480296 0.2639087 -0.0035826913 0.13832404 0.1755089 -0.22637492 -0.016590763
0.3554356 0.44010958 0.08198876 -0.38723096 0.21839514 0.09687902 0.034675114 0.21170212
-0.7519861 0.026509155 0.48599944 0.13716397 0.07905134 -0.703895 -0.050133117 -0.25477207
-0.16385871 0.23707767 0.6346381 0.27719828 -0.25768515 0.048062548 0.10800698 0.77177256
0.07515921 -0.04226703 0.45861918 -0.00031566044 -0.28946152 0.32641548 -0.20334882 -0.089651465
-0.44489 0.29930693 0.3388245 0.16298616 -0.31183052 -0.44137293 -0.6660543 0.5242083
0.3295362 0.2879166 0.31067333 0.11318624 -0.0043794215 -0.34010863 -0.38316017 -0.41830063
0.18307221 -0.21956755 -0.090002894 -0.25737375 -0.08149284 -0.6184493 -0.06320533 0.2523139
-0.22478668 0.38054365 -0.14347005 -0.32806122 -0.07890588 -0.21678562 -0.13682124 -0.70837915
00000000: ef05 2b3f 77ee ad3e bd42 04bd 3150 2b3f
00000010: 00f9 cc3c 98d1 b83d 23f4 5ebe da78 863e
00000020: 90d9 c93e 36fb a7be ae52 5f3e 0987 813e
00000030: c3f4 e43e de51 f93d f04f a23e 950f abbe
00000040: 4c0d 0d3f 654a 453e e1cd 8abe bdb7 4b3e
00000050: 2afe 52be a0d1 56bd b6ff 39be f0e4 973e
00000060: a7be b4be 401e 53be 0650 01be e6ac 89be
00000070: c8e3 2c3d f726 e2be c930 1f3f 1175 8dbe
00000080: 933a d63e 09da d13e abdb 8a3d 23d3 183f
00000090: 0c9e 0d3e 73ee c43e 46ef be3e 3338 6c3d
000000a0: 5b64 bfbd e3c9 293d f53f 953e cd00 d73e
000000b0: c850 af3e a433 48be a02d 843e 98e0 a33d
000000c0: b88f 683e 788f 8bbe c83e 47bf de5b 5e3d
000000d0: 8396 35be 099e b53e 46d8 633e 10b0 3d3e
000000e0: acd4 103e 00ed febb 4a32 b33e 4eb0 a2be
000000f0: 2dd4 57be a8c2 05be 5783 7e3e 1d8e 34be
00000100: cc2a 693e 90d1 bebd 9ce8 bd3e 84b6 87be
00000110: 2b8f 88be 4891 88be 6d8a 023f 5c99 253e
00000120: 2358 f03e de16 79be 32a5 d0be 13be 10bf
00000130: 0151 c4bd 790c a13e f7b8 023e 35e4 ef3e
00000140: d080 06bf 3415 84bd 4ff7 973e c4e3 afbe
00000150: eef5 ad3e 0fcd b6be 4db4 f93e 0753 50be
00000160: bebc 95be 4872 723e 78a0 c13d d883 e9bd
00000170: ea7b 883e 80a8 9b3e 9e0b a6be b27b 74be
00000180: 86a9 d13e ae86 1abe 8059 22be ab8d ddbe
00000190: adb1 2cbf c10c a83e a2fe 9d3d 52b3 b3be
000001a0: 431c c43d 5068 9cbe 9e42 c2be 952c 7cbe
000001b0: 7766 c8be cacb 91be 94e9 de3e be8e 993d
000001c0: 822d 013e 6ccb d9be e75a 9cbe 246e 18be
000001d0: 2038 8f3d 827a c9be 2051 45be 4414 89be
000001e0: 0071 a23a 4867 2abe c0de fdbc be28 9bbe
000001f0: 8c2a 9dbe 5e95 85be 06c1 1cbe 6cb9 b4be
00000200: befc bf3e 9cc5 b5bd c87a 323f e1fd ad3d
00000210: 0689 91be cf1d 183f 4014 ef3b fc8a 2fbe
00000220: 6410 bebe e5a2 e3be 0006 033e 4012 c8bd
00000230: 5a45 fe3e 8a24 aebe 2652 b73e ed77 2fbd
00000240: ae5c c13d 5e55 0b3e 7a46 653e acf9 ca3e
00000250: 94e4 203f e083 9bbe 1a67 20be 1751 a4b9
00000260: 2ac6 663d 72a0 d5be da56 f23e 0577 11bf
00000270: de06 0a3f bb1d c23e de3a 3e3e efde 92bc
00000280: e260 5d3e 6fc5 963e 7ee2 373e b373 cbbe
00000290: f22e 953e 418a 98bd 0860 993d 7ec5 0a3f
000002a0: fea0 dd3d ca51 8dbd dfc8 67be e0f4 aebc
000002b0: 20b3 7f3e b00a eabd 7ea5 82be 12d2 1cbe
000002c0: 6c0f abbe 9451 233e 0e3c b13e 9490 d7be
000002d0: ee93 f2bd 9593 ee3e 205d 1f3e 730a 72be
000002e0: f145 9d3e 3a47 143e 0b1f 873e 96cb 6abb
000002f0: d1a4 0d3e 9bb8 333e d4ce 67be 5ae9 87bc
00000300: a8fb b53e 0b56 e13e b9e9 a73d 2343 c6be
00000310: faa2 5f3e 8268 c63d 7e07 0e3d 71c8 583e
00000320: 2982 40bf ba29 d93c ebd4 f83e b674 0c3e
00000330: abe5 a13d 7632 34bf 6258 4dbd 7c71 82be
00000340: 94ca 27be 7dc4 723e a477 223f efec 8d3e
00000350: 4fef 83be 3cdd 443d c332 dd3d e392 453f
00000360: 12ed 993d 3120 2dbd 22d0 ea3e 3a7f a5b9
00000370: 4d34 94be ee1f a73e ac3a 50be 309b b7bd
00000380: 9fc8 e3be c23e 993e 687a ad3e d8e5 263e
00000390: 40a8 9fbe a2fb e1be 8982 2abf 8432 063f
000003a0: f8b8 a83e ce69 933e 9310 9f3e 30ce e73d
000003b0: 4081 8fbb b822 aebe 922d c4be 802b d6be
000003c0: 4877 3b3e 51d6 60be 7053 b8bd 7ec6 83be
000003d0: b8e5 a6bd b152 1ebf cc71 81bd 4a2f 813e
000003e0: 7b2e 66be 9ed6 c23e d0e9 12be a4f7 a7be
000003f0: 6899 a1bd 0dfd 5dbe de1a 0cbe 5658 35bf

fc1.bias f4 [64]
-0.36225638 -0.09216049 0.5340033 0.4734571 -0.28299183 -0.35861388 -0.24353059 -0.4090586
-0.16381265 -0.11059475 0.5617996 0.074855626 -0.12489334 -0.35876542 0.23903687 -0.08963135
0.18001413 0.47497356 -0.20697585 -0.04876414 0.20635968 -0.10580328 -0.2384144 -0.39866334
-0.36150825 -0.23946573 0.35913607 -0.21601073 -0.28513557 0.16312326 0.32543483 0.57627374
0.5726742 0.5530573 -0.44341272 0.03966275 0.509089 0.0524493 -0.06463578 0.66744846
0.054144844 -0.0008683606 -0.35745105 -0.00092847896 0.19817513 0.09899646 0.30957472 -0.33916116
-0.41764706 0.25393894 0.40778458 0.4959622 -0.3087435 -0.058052152 -0.18249212 -0.21574631
0.08098966 0.48280916 0.6431744 -0.41058952 0.2990138 -0.40094718 0.38069716 0.5662377
00000000: ab79 b9be a4be bcbd 71b4 083f f868 f23e
00000010: 4ee4 90be 3d9c b7be 1560 79be 2170 d1be
00000020: 81be 27be 807f e2bd 19d2 0f3f e84d 993d
00000030: 14c8 ffbd 1ab0 b7be 15c6 743e a490 b7bd
00000040: a055 383e bc2f f33e 7af1 53be e8bc 47bd
00000050: f44f 533e 64af d8bd e822 74be 9a1d ccbe
00000060: 9c17 b9be 8136 75be afe0 b73e eb31 5dbe
00000070: 4afd 91be c909 273e 659f a63e ad86 133f
00000080: c79a 123f 2a95 0d3f fe06 e3be 6875 223d
00000090: a853 023f 14d5 563d c45f 84bd e7dd 2a3f
000000a0: fcc6 5d3d b2a2 63ba d303 b7be 2b65 73ba
000000b0: 6cee 4a3e a8be ca3d 9480 9e3e 88a6 adbe
000000c0: d6d5 d5be 4904 823e 24c9 d03e c2ee fd3e
000000d0: a113 9ebe 18c8 6dbd 37df 3abe 9aec 5cbe
000000e0: e8dd a53d c332 f73e 14a7 243f ca38 d2be
000000f0: 5618 993e f348 cdbe bdea c23e f4f4 103f

fc2.weight f4 [64, 64]
0.0017552972 0.113726124 -0.11704048 -0.05428659 0.07290661 -0.027233481 -0.025587529 -0.05209896
0.0745731 0.0613129 0.025210977 -0.07024546 -0.109503485 0.013520077 0.037034854 -0.06924681
-0.04542242 0.07115574 0.009957463 0.0056397915 -0.015296512 -0.11319871 -0.11753218 -0.059751883
-0.063540176 0.0389442 -0.054492556 -0.048902765 0.11917873 0.04354036 0.07748044 -0.060514092
-0.058194 0.04594256 -0.08328439 -0.081713006 -0.016562235 -0.052707028 -0.07142102 0.061925314
0.094114766 0.014412751 -0.02176416 -0.11578412 -0.045529842 0.031823203 0.047739815 -0.01580219
-0.049419105 0.058400687 -0.099549964 0.06580515 -0.053525016 0.001913175 -0.036303908 0.015154868
-0.0377748 0.09197697 -0.018119873 0.097574934 0.12018506 -0.060569562 -0.10395295 0.09475893
0.09795174 -0.09544341 -0.009662911 -0.12326579 -0.10232489 0.024142817 0.033254325 0.026497632
-0.034020588 0.11532222 0.017872244 -0.0737606 -0.0070767254 0.03001815 0.043774083 -0.088385105
0.0468487 -0.06386021 -0.103867546 -0.06827593 0.12055117 0.106857225 0.111935556 0.0733764
0.09443119 -0.016731218 -0.068778485 0.06245707 -0.064772844 -0.08435823 -0.039916754 0.026232406
0.06434958 -0.048551127 -0.07357079 0.016861632 -0.07367915 -0.08138268 0.06515649 -0.020998076
0.11422312 0.12159783 0.03738819 0.043019712 0.028785467 0.0019576102 -0.009091556 0.0017180145
0.046678096 0.11622135 -0.032394886 -0.052839473 -0.030270606 -0.060390532 0.021254838 0.09330605
0.09774718 0.05739069 -0.09199144 -0.0670881 -0.027463928 -0.023040518 0.010280967 -0.11474644
-0.25917605 -0.09535901 -0.0068145646 0.08920385 0.10891496 -0.11836748 -0.12166951 -0.25461978
0.054466814 0.07818481 0.20435089 0.078394264 0.19948275 -0.10852626 -0.020714821 0.15954275
0.19782414 0.20324813 0.03419137 -0.060133353 0.33456144 0.118765 0.086689375 -0.0046960562
-0.11756636 0.0054784715 -0.32082093 0.10164894 -0.32425743 -0.14715308 0.08978732 0.3034532
0.21380576 0.120991975 0.0723955 0.097027704 0.23817542 0.016390596 -0.032504972 0.2403638
0.19568735 0.2542299 -0.20415702 -0.35853052 0.050880417 0.019164756 0.2374862 0.124185756
0.08534162 0.29278862 0.006690353 0.09234789 -0.11090289 -0.07764672 -0.049274966 -0.06265594
-0.11507097 0.0037359823 0.09630993 -0.123229235 -0.076726556 -0.19399749 0.18881387 0.09659802
-0.036359847 0.06674416 -0.06167136 -0.05910407 0.07701619 -0.10891271 0.015284345 0.110422745
0.021435812 0.033992976 -0.07279889 -0.001724571 0.0068730563 0.030679286 0.04856825 0.10861598
-0.09541243 0.0037469119 -0.062454537 -0.09888299 -0.010009706 -0.11002961 0.0872374 0.014476851
-0.06736976 0.065322384 -0.11830349 -0.048349902 -0.024352342 -0.106218785 -0.07948604 -0.020402327
0.09484558 0.12070678 0.0795328 -0.0746405 -0.08177765 0.10908665 0.04421468 0.0033209622
0.016916513 -0.100462094 -0.04173568 0.120327264 -0.030829027 -0.006270513 -0.103791386 -0.06992589
-0.0025524497 -0.07764493 -0.015501201 0.050869897 -0.12227216 0.03712651 -0.08265102 -0.061006382
0.047988713 0.09939003 -0.03416358 -0.051321134 -0.11302948 -0.06445721 -0.10945462 -0.028608814
00000000: 0012 e63a 3ee9 e83d ebb2 efbd 9e5b 5ebd
00000010: 1050 953d c018 dfbc f09c d1bc b865 55bd
00000020: c8b9 983d 3c23 7b3d 4087 ce3c dadc 8fbd
00000030: 5d43 e0bd 5083 5d3c dcb1 173d 46d1 8dbd
00000040: dc0c 3abd 1aba 913d a024 233c 00ce b83b
00000050: 399e 7abc bad4 e7bd b6b4 f0bd 64be 74bd
00000060: 5a21 82bd f483 1f3d 9633 5fbd 444e 48bd
00000070: fa13 f43d 6057 323d 11ae 9e3d a0dd 77bd
00000080: d55c 6ebd 442e 3c3d 0291 aabd 2659 a7bd
00000090: 86ad 87bc 53e3 57bd 2f45 92bd 66a5 7d3d
000000a0: 3ebf c03d 7623 6c3c c04a b2bc 3a20 edbd
000000b0: 807d 3abd 0c59 023d d38a 433d 9873 81bc
000000c0: b06b 4abd 8f35 6f3d dae0 cbbd dac4 863d
000000d0: 0c3d 5bbd 80c3 fa3a 68b3 14bd 204c 783c
000000e0: c0b9 1abd 6c5e bc3d 2170 94bc 5ed5 c73d
000000f0: 9623 f63d ca17 78bd 49e5 d4bd f810 c23d
00000100: ec9a c83d d677 c3bd 3051 1ebc c672 fcbd
00000110: b68f d1bd 28c7 c53c b035 083d 9011 d93c
00000120: 2c59 0bbd 0e2e ec3d d068 923c cc0f 97bd
00000130: e0e3 e7bb a0e8 f53c 744c 333d 4003 b5bd
00000140: 6ce4 3f3d 24c9 82bd 82b8 d4bd 40d4 8bbd
00000150: 88e3 f63d f6d7 da3d 783e e53d 5e46 963d
00000160: 2465 c13d e80f 89bc bcdb 8cbd fcd2 7f3d
00000170: a0a7 84bd 02c4 acbd c07f 23bd 58e5 d63c
00000180: b6c9 833d 8cdd 46bd 48ac 96bd 6821 8a3c
00000190: 18e5 96bd f6ab a6bd c470 853d 2804 acbc
000001a0: d0ed e93d 4808 f93d 5c24 193d 7035 303d
000001b0: 80cf eb3c 404b 003b c0f4 14bc 002f e13a
000001c0: 8831 3f3d 7605 ee3d 80b0 04bd 346e 58bd
000001d0: 10fa f7bc 105c 77bd a01e ae3c 3e17 bf3d
000001e0: ac2f c83d 8012 6b3d 0266 bcbd 7c65 89bd
000001f0: 08fc e0bc 78bf bcbc 8071 283c 2e00 ebbd
00000200: b9b2 84be 964b c3bd b64c dfbb 82b0 b63d
00000210: ce0e df3d a66a f2bd dd2d f9bd 865d 82be
00000220: 9818 5f3d 5c1f a03d 5c41 513e 2c8d a03d
00000230: 3545 4c3e 0443 debd 21b2 a9bc 2d5f 233e
00000240: 6992 4a3e 4720 503e 400c 0c3d 644e 76bd
00000250: a34b ab3e 103b f33d 338a b13d 60e1 99bb
00000260: a2c6 f0bd c084 b33b a442 a4be 522d d03d
00000270: 1205 a6be 4caf 16be 6ae2 b73d 385e 9b3e
00000280: e6ef 5a3e a4ca f73d 1844 943d 76b6 c63d
00000290: 42e4 733e 9245 863c ef23 05bd ee21 763e
000002a0: 4462 483e 6c2a 823e 8a0e 51be 5091 b7be
000002b0: fc67 503d 68ff 9c3c 952f 733e 1a55 fe3d
000002c0: 96c7 ae3d 64e8 953e c03a db3b e420 bd3d
000002d0: 0e21 e3bd 3e05 9fbd 8cd4 49bd c251 80bd
000002e0: 54aa ebbd 62d7 743b 243e c53d 9c5f fcbd
000002f0: d022 9dbd 47a7 46be 6c58 413e 2fd5 c53d
00000300: 10ee 14bd 2ab1 883d 1c9b 7cbd 1c17 72bd
00000310: aaba 9d3d a00d dfbd 306b 7a3c 5225 e23d
00000320: 289a af3c 383c 0b3d 9617 95bd 000b e2ba
00000330: 6037 e13b 2053 fb3c 80ef 463d 0e72 de3d
00000340: 9867 c3bd c08e 753b 54d0 7fbd 2a83 cabd
00000350: c0ff 23bc 3457 e1bd 86a9 b23d 5030 6d3c
00000360: 28f9 89bd bec7 853d 1a49 f2bd 8c0a 46bd
00000370: 907e c7bc 3c89 d9bd 94c9 a2bd c822 a7bc
00000380: 663e c23d 1e35 f73d 18e2 a23d 1edd 98bd
00000390: 0a7b a7bd d268 df3d 741a 353d 80a4 593b
000003a0: 8094 8a3c 12bf cdbd 08f3 2abd 246e f63d
000003b0: 288d fcbc e078 cdbb 9490 d4bd 4e35 8fbd
000003c0: 0047 27bb 4e04 9fbd c0f8 7dbc f45c 503d
000003d0: d469 fabd f811 183d f044 a9bd d4e1 79bd
000003e0: d08f 443d 008d cb3d 1cef 0bbd 1c36 52bd
000003f0: 007c e7bd 2402 84bd be29 e0bd 085d eabc

fc2.bias f4 [64]
-0.034207154 -0.11641814 0.29004675 0.09268586 0.085150056 0.21010694 0.2905563 0.03957829
-0.110450014 0.06935817 0.011985893 -0.051067524 0.08967871 0.18153526 0.26461285 -0.030580938
-0.04037568 0.09524344 -0.01928854 0.06608851 -0.15380552 -0.026665878 0.2749385 -0.035676837
-0.04618354 -0.054325078 -0.022937074 -0.0625775 -0.120350495 0.047767147 -0.051543735 -0.015914813
-0.0026037903 0.25723633 -0.14332019 -0.11374797 0.05770016 -0.102644585 0.10034507 0.09872694
-0.11051435 -0.07347849 -0.10190046 0.009946566 0.2030946 -0.076220706 -0.080809906 0.026894115
-0.07998526 0.043383405 0.028683454 0.064971544 -0.04771627 0.2835424 0.09356159 0.24720903
0.2565071 -0.071583025 0.0798986 0.085349634 0.15023719 0.24391276 -0.016275093 -0.022978619
00000000: cd1c 0cbd a26c eebd 0281 943e 16d2 bd3d
00000010: 2763 ae3d 4626 573e ccc3 943e d81c 223d
00000020: 9e33 e2bd a80b 8e3d 7b60 443c 2e2c 51bd
00000030: 79a9 b73d 61e4 393e 567b 873e e084 fabc
00000040: f860 25bd fe0e c33d 0003 9ebc 6a59 873d
00000050: 327f 1dbe 6672 dabc bdc4 8c3e e021 12bd
00000060: f42a 3dbd f983 5ebd 88e6 bbbc a228 80bd
00000070: 527a f6bd 7ca7 433d 861f 53bd c85f 82bc
00000080: 5aa4 2abb 7bb4 833e 87c2 12be b2f4 e8bd
00000090: 0157 6c3d 5337 d2bd b781 cd3d 5a31 ca3d
000000a0: 5955 e2bd e47b 96bd 30b1 d0bd ecf6 223c
000000b0: 08f8 4f3e 9a19 9cbd aa7f a5bd 0c51 dc3c
000000c0: 50cf a3bd ccb2 313d 90f9 ea3c cd0f 853d
000000d0: 2372 43bd 782c 913e 389d bf3d 5d24 7d3e
000000e0: e654 833e 1f9a 92bd e1a1 a33d cacb ae3d
000000f0: c7d7 193e 44c4 793e 5853 85bc a83d bcbc

out.weight f4 [20, 64]
0.08569211 0.004036933 0.23000485 -0.06375916 0.077135116 0.11285707 0.20963857 0.00406227
-0.034989506 0.0907799 0.20512415 0.037660763 0.06425115 0.02162152 0.011323708 -0.07027881
-0.09393847 0.16678563 0.033598185 -0.07997805 0.041132525 0.035587385 0.15738167 -0.052669138
0.086542234 -0.0881736 0.12930064 -0.07189304 0.053092003 -0.045220494 0.08120865 -0.1048339
-0.02437234 0.061820243 -0.20163657 -0.061399266 0.05596341 0.012961134 0.21220608 -0.020540908
0.108922735 -0.059483767 -0.06435186 0.08098873 0.08461068 0.039704084 0.12498436 0.042798758
-0.21860555 -0.04270734 -0.024833053 -0.11137529 0.045171946 0.21203306 0.06208171 0.10296127
0.09598309 0.0030934012 0.09583059 0.2117271 0.04534118 0.13701491 -0.09171519 -0.034182712
0.019053064 -0.09438741 0.13670117 -0.10734047 0.07759275 0.18775441 0.24327303 0.10925139
-0.08934273 -0.10263413 0.09357102 -0.09209388 0.21368572 0.017377175 0.17033583 0.02376613
-0.038019 0.19613454 0.06956115 0.005906568 -0.22568223 -0.0367907 0.15108556 0.10830876
-0.04218225 -0.04594487 -0.02439524 -0.0147608975 0.12200324 0.08605984 -0.056587078 0.08954726
-0.023056276 0.15991983 -0.095953174 -0.10191184 0.12960388 0.057111572 0.053631566 0.11556864
0.09758443 0.104470626 -0.0011276305 0.0009794696 0.039347477 0.04418093 -0.09355549 0.111101575
-0.07546728 0.009646133 -0.1023356 -0.0028349566 0.03793708 0.06005209 -0.06541887 0.04252003
0.12460001 -0.046351977 0.18238653 0.11043979 0.07854864 0.08097738 -0.059311435 0.09771204
0.08670806 0.035528705 0.10436865 0.031226695 0.22881468 0.14705001 0.06633194 0.16500692
-0.049605086 -0.0044386387 0.024368465 -0.052091364 0.11887935 0.022454366 0.18018822 0.115448594
-0.104554564 0.13514465 -0.08635047 -0.013760244 -0.086054176 0.002926893 0.14643086 -0.040499896
0.1192905 -0.054240387 0.16437596 -0.06659175 0.08514716 0.012764722 0.08679982 0.032206655
0.06321128 0.09477985 -0.07573117 0.12330249 0.04209998 -0.044861246 0.19822781 0.047799885
-0.11798857 0.044457853 -0.12259428 -0.00837749 0.15800567 0.065846875 -0.107490666 0.111777805
-0.021545442 0.09747183 -0.11480717 -0.104991406 -0.057093725 0.19206274 -0.020968437 0.10441238
0.13486171 -0.043109126 0.028597914 0.18998896 0.108129755 0.2038497 -0.12188649 -0.047712356
0.08771083 -0.012101769 0.1941085 -0.104715005 0.23749708 0.07606117 0.14163552 0.0740712
-0.055459186 -0.107160896 -0.0075653265 -0.064432256 0.07617184 0.21061409 0.116367646 0.09719956
-0.020936191 0.1549933 0.120050326 -0.08461649 -0.19769087 0.10686271 0.11446037 -0.03366424
0.01003173 -0.054013312 0.14303508 -0.076878816 0.03965494 -0.026534438 -0.027063796 -0.047088295
0.032476053 0.1754392 -0.20207898 -0.08717872 -0.02242632 0.05834952 0.21449006 -0.120100185
0.032495067 0.025350496 -0.06707907 0.09847776 0.234146 0.12260868 0.013995572 -0.009839085
-0.153095 -0.047607332 0.0010252446 -0.03557036 0.06963588 0.0014206667 0.011157036 0.047482885
0.13352966 0.1635487 0.14767416 0.06497239 0.08655023 0.038590536 -0.113251284 0.054464847
00000000: 587f af3d 4048 843b 6486 6b3e 2a94 82bd
00000010: 04f9 9d3d 9c21 e73d 7eab 563e ca1c 853b
00000020: 2851 0fbd d0ea b93d 110c 523e 2c42 1a3d
00000030: 1b96 833d 9d1f b13c 1387 393c 56ee 8fbd
00000040: d062 c0bd dac9 2a3e 409e 093d 88cb a3bd
00000050: 947a 283d 14c4 113d a928 213e 98bb 57bd
00000060: 0e3d b13d 5c94 b4bd 6367 043e a83c 93bd
00000070: 0077 593d 2039 39bd b850 a63d 28b3 d6bd
00000080: 80a8 c7bc 3937 7d3d d179 4ebe cc7d 7bbd
00000090: e339 653d f05a 543c 8d4c 593e 6845 a8bc
000000a0: e212 df3d 40a5 73bd e8ca 83bd 6bdd a53d
000000b0: 5d48 ad3d c0a0 223d cdf7 ff3d c04d 2f3d
000000c0: 22da 5fbe e4ed 2ebd b06e cbbc ba18 e4bd
000000d0: 3806 393d 321f 593e 6449 7e3d 5cdd d23d
000000e0: c892 c43d a9ba 4a3b d442 c43d fdce 583e
000000f0: acb7 393d a34d 0c3e 2cd5 bbbd 2c03 0cbd
00000100: 2c15 9c3c 304e c1bd 64fb 0b3e 52d5 dbbd
00000110: f3e8 9e3d b142 403e 911c 793e 31bf df3d
00000120: 52f9 b6bd d831 d2bd 2aa2 bf3d b79b bcbd
00000130: 6ed0 5a3e 945a 8e3c 846c 2e3e 30b1 c23c
00000140: d0b9 1bbd 7ed7 483e 1476 8e3d e28b c13b
00000150: 3e19 67be d8b1 16bd 2cb6 1a3e fcd0 dd3d
00000160: 4cc7 2cbd b030 3cbd 87d8 c7bc b1d7 71bc
00000170: d6dc f93d 2440 b03d dac7 67bd 8e64 b73d
00000180: 84e0 bcbc 06c2 233e 1983 c4bd 28b7 d0bd
00000190: e1b6 043e d3ed 693d c6ac 5b3d 40af ec3d
000001a0: 58da c73d b2f4 d53d 00cd 93ba 8c61 803a
000001b0: d22a 213d 10f7 343d 059a bfbd 3989 e33d
000001c0: 978e 9abd d00a 1e3c 5495 d1bd aeca 39bb
000001d0: e963 1b3d 2ef9 753d 54fa 85bd 7c29 2e3d
000001e0: 4a2e ff3d 92db 3dbd 89c3 3a3e 422e e23d
000001f0: 1cde a03d 78d7 a53d 8cf0 72bd 401d c83d
00000200: ff93 b13d 8c86 113d 3bbf d53d 20cf ff3c
00000210: 654e 6a3e 4794 163e 0ad9 873d 93f7 283e
00000220: b42e 4bbd 0072 91bb 60a0 c73c c15d 55bd
00000230: 0477 f33d 38f2 b73c 4383 383e 5070 ec3d
00000240: b420 d6bd 5c63 0a3e 84d8 b0bd a572 61bc
00000250: 2c3d b0bd 1ed1 3f3b f9f1 153e 38e3 25bd
00000260: 944e f43d 2b2b 5ebd 2c52 283e 4161 88bd
00000270: a261 ae3d 2023 513c 1bc4 b13d 20eb 033d
00000280: ea74 813d f01b c23d f218 9bbd 0486 fc3d
00000290: 0771 2c3d 6dc0 37bd 3bfc 4a3e d0c9 433d
000002a0: fea3 f1bd 7019 363d b612 fbbd bd41 09bc
000002b0: 3dcc 213e bada 863d 1124 dcbd c3eb e43d
000002c0: 1180 b0bc 509f c73d 0620 ebbd bc05 d7bd
000002d0: 1cdb 69bd 18ac 443e 00c6 abbc 28d6 d53d
000002e0: 3019 0a3e 3293 30bd 2c46 ea3c 778c 423e
000002f0: 2273 dd3d fabd 503e a09f f9bd 086e 43bd
00000300: bca1 b33d 8046 46bc 61c4 463e d274 d6bd
00000310: 6f32 733e f5c5 9b3d e708 113e a4b2 973d
00000320: 2c29 63bd 2c77 dbbd 8fe6 f7bb 0ff5 83bd
00000330: fbff 9b3d 38ab 573e 2952 ee3d 9010 c73d
00000340: 6082 abbc 90b6 1e3e f2dc f53d 694b adbd
00000350: 7a6f 4abe d6da da3d 336a ea3d 84e3 09bd
00000360: 205c 243c 103d 5dbd ca77 123e a472 9dbd
00000370: 386d 223d c05e d9bc e5b4 ddbc a8df 40bd
00000380: 9c05 053d 55a6 333e cbed 4ebe c28a b2bd
00000390: 67b7 b7bc e8ff 6e3d 48a3 5b3e 16f7 f5bd
000003a0: 8c19 053d d8ab cf3c c060 89bd b5ae c93d
000003b0: f8c3 6f3e 421a fb3d af4d 653c 1d34 21bc
000003c0: f0c4 1cbe e8ff 42bd 8061 863a 3ab2 11bd
000003d0: 429d 8e3d aa35 ba3a 00cc 363c 6a7d 423d
000003e0: 00bc 083e 4f79 273e e537 173e 3f10 853d
000003f0: 3f41 b13d 1c11 1e3d 4af0 e7bd 8816 5f3d

out.bias f4 [20]
0.13284387 0.18210778 0.10857697 0.05675165 0.048386328 0.091232695 0.10346163 -0.014957825
0.18045138 0.12134645 0.02665971 0.06437549 0.03414164 -0.04462362 0.11676762 0.05846099
-0.018721668 0.059644703 0.101047434 0.11071562
00000000: 3908 083e 767a 3a3e 9a5d de3d 6b74 683d
00000010: be30 463d 35d8 ba3d b1e3 d33d aa11 75bc
00000020: 3fc8 383e 7d84 f83d 7765 da3c 4cd7 833d
00000030: 1bd8 0b3d 42c7 36bd dd23 ef3d cb74 6f3d
00000040: 2f5e 99bc 014e 743d f5f1 ce3d dfbe e23d
