backend/ddqn_q_network.pth (torch, 26254 bytes, 6 tensors)

fc1.weight f4 [64, 6]
00000000: a6f6 bd3e fbe2 78b8 346a 56bb e39e 24bf
00000010: 5609 c4be 7565 813e ee25 8ebd 5e3d a9bd
00000020: e427 323c 02ce cdbd 3dc3 9abe c437 d2be
00000030: 00b2 41bf deef a43c 00e0 f539 a8dd 26bf
00000040: 60e3 693f 9af1 19be a86b dd3d 7135 1dbf
00000050: 6f2c a03d fe55 57bf ae0b f73c fe2e 87bc
00000060: 43b5 e33d 773e aebc 513f 01bd 473f 32bf
00000070: e882 783e 9bcb a8be 088e 883d a5e2 32be
00000080: e183 0bbb 47ba 23bf b461 05bf 14a6 0ebe
00000090: b62d 443d 1bff 153e a874 c0bc a0ce 823f
000000a0: 486e 89be 6a72 953e f81c 43be fa0d c5bb
000000b0: 29df 5b3d 1d2b 653f 7dd2 d4bc 99af b03e
000000c0: 9b85 6fbe 7e0b 12be cc42 85be dca3 32be
000000d0: ec0d 84be e4da 89bd 90ca a8be de42 37be
000000e0: d118 c6bc f0e3 983f acc4 503d 640e 243d
000000f0: 36af 1cbf dbf5 dabe 9798 77be 04d6 1dbe
00000100: ef68 8dbe 5fe5 aabf 2526 75bf d407 573d
00000110: 5d17 b5bc 3721 793e 59a4 b93c 0aca b8bf
00000120: 4116 053f 6aea 78bf 0f90 6f3c 5ef2 3abe
00000130: 1db7 d03e 35b3 db3e f83a aabf b746 8b3d
00000140: d60b 943b b26a 31bf 4e2c c1be 0515 493f
00000150: efd2 483e 6ab2 3c3d 3abd d1bb ef5f 3fbf
00000160: 3635 1e3f 89b5 983d 4b8b 48bf 55fb 603e
00000170: 4637 48be e9be 4fbf 19d8 d43d 1d49 23bf
00000180: 7175 0bbf cf3c 5d3e 6721 3dbd 9909 03bf
00000190: a24e 0bbf 38cd d7bc d404 23bf 22a3 c0bd
000001a0: 02da 71bf a554 fcbe 9939 23be 9a85 e9bd
000001b0: f22a 8fbf f773 65be 7fa8 0d3c 56d5 40bf
000001c0: efb8 a13e 70e6 9c3e 0a95 d53e 04c7 cfbf
000001d0: abec 913b 9bf4 ca3e 9510 79bd 0d9a 223e
000001e0: 632b 05bf 20b4 3b3e e482 6e3c 16db 043f
000001f0: 6d6f 323f 07f5 103e abbf a0be e455 09bd
00000200: 0c82 ec3a 2440 38be b526 3cbd 5928 103e
00000210: 8db6 03bd 626a f23c 6273 d6be 06bb 123f
00000220: 7581 08be d3f8 a7bf e50c 15bf 8af9 c53d
00000230: 8835 163d 7496 7dbf 1e40 c13e 272e 693e
00000240: 5aa1 0ebf e3bb 36bf 306c 6b3d 65f6 dbbe
00000250: 3427 64bd c75b 103f b22d 8b3e d29b ddbd
00000260: ad47 f83a 3f02 003e 0200 10c0 2c7b b33c
00000270: 872d 11be 4494 97be ec1a abbe b995 54be
00000280: bffb ab3e 983b b5be 0bc8 a93e b87e 51bd
00000290: 9bba 80bc d0a4 e9be c57e a03e 9c36 d73d
000002a0: fd1f af3d 2475 90bf c856 f8be 3106 bb3e
000002b0: 3624 f23c c57d 18bf 6774 c2be 2aee 89be
000002c0: 90cf 8bbd 0867 bdbd 0e62 91be 1c90 b8be
000002d0: e1c8 703e 6b3a 00bb 4524 103b 8440 a6bf
000002e0: c4a5 04bb 6ece c03b 45e0 c03e 8d70 413e
000002f0: 52ae 67bd 4f2f 463e df62 eebb 23dd cc3e
00000300: 6235 37bf 1ead 8abd 794c 00be 1f1d acbe
00000310: da72 623f 9e20 1bbe 5864 1bbf 10c2 cd3d
00000320: 15a8 2c3b fffa 3ebf c835 023e 998b e93d
00000330: 8476 903e e991 d13e ff12 0cbc 50fd 4ebf
00000340: d709 08be 6571 c5be 3035 8f3d d12b 0dbe
00000350: 3e36 26bd e0bd 64be b54b 3f3f 9bff 15bf
00000360: 0200 ea3d 8df9 093e 45b0 94bb 32ed 33bf
00000370: a963 eebe ab50 9cbc 78a1 8ebe a25f 4cbe
00000380: ea9c bbbc d07d 22bf 522b a13e 645d 133e
00000390: e17b 6dbe 2fe3 3ebc 91f4 09bc a122 7c3f
000003a0: d422 f0be 504c 293e 6dc9 b03c e9f7 093e
000003b0: 17a5 013d 6077 8e3f fb21 ae3d 4a3c afbe
000003c0: 12a5 8cbe a654 aebe d201 37bf 6ef8 863e
000003d0: 9ca8 863e 1f2b 443d 38e9 fcbe 052c 24bd
000003e0: 37ea a0bb e9ce 98bf 77ba 5c3f ad68 8abd
000003f0: dd59 1ebe 1766 09be 63db 133d b88a 49bf
0.3710224 -5.93392e-05 -0.003271711 -0.6430494 -0.38288373 0.25272718 -0.06940828 -0.08263658
0.0108737685 -0.100490585 -0.3022708 -0.4105817 -0.7566223 0.020133909 0.00046896935 -0.6518197
0.9136257 -0.1503357 0.108115494 -0.6140967 0.07820975 -0.8411559 0.030156936 -0.0165019
0.11118557 -0.02127002 -0.031554524 -0.69627804 0.24268687 -0.3296784 0.06667715 -0.1746927
-0.0021288323 -0.6395611 -0.5210221 -0.13930541 0.047895156 0.14648096 -0.023493126 1.0219307
-0.2684195 0.29188854 -0.1905402 -0.006013629 0.05367962 0.8951891 -0.025979275 0.3450897
-0.2339081 -0.14262196 -0.26027524 -0.1744532 -0.25791872 -0.06731203 -0.32967043 -0.17896602
-0.024181755 1.1944561 0.05096881 0.040052786 -0.6120485 -0.42765698 -0.24179302 -0.15413672
-0.2761912 -1.3351249 -0.9576133 0.0524977 -0.022105867 0.24329077 0.022661375 -1.4436657
0.5198708 -0.9723269 0.014621749 -0.18256518 0.40764704 0.42910162 -1.3299246 0.06800597
0.0045180125 -0.6930343 -0.37729114 0.785477 0.19611715 0.046068586 -0.0064007314 -0.7475576
0.61799943 0.074565 -0.78337544 0.21970876 -0.19552335 -0.8115068 0.1039278 -0.63783437
-0.54476076 0.21605228 -0.046174433 -0.5118652 -0.5441686 -0.026342973 -0.6367924 -0.09406115
-0.9447328 -0.4928333 -0.1593994 -0.114024356 -1.1184981 -0.22407518 0.00864613 -0.75325525
0.31586406 0.3064456 0.4171527 -1.623261 0.004453262 0.39639744 -0.06080683 0.15879078
-0.5201933 0.18330431 0.014557574 0.518968 0.6970127 0.1415597 -0.3139623 -0.033529177
0.0018044128 -0.17993218 -0.04593535 0.14077891 -0.032156516 0.029591743 -0.41884905 0.57316625
-0.13330634 -1.312281 -0.582228 0.096667364 0.036672145 -0.990577 0.3774423 0.22771512
-0.5571495 -0.7138044 0.057476223 -0.42961422 -0.05570145 0.5639004 0.271833 -0.10820736
0.001894226 0.12500857 -2.2500005 0.021909319 -0.14177524 -0.29605305 -0.33418977 -0.2076024
0.33590505 -0.3539703 0.33160433 -0.05114624 -0.01571398 -0.45633554 0.31346717 0.10508463
0.08551023 -1.1285748 -0.4850371 0.3652816 0.029558282 -0.5956691 -0.37979433 -0.26939517
-0.06826699 -0.09248167 -0.28395122 -0.36047447 0.23514129 -0.001956607 0.0021994275 -1.2988439
-0.0020240406 0.0058839833 0.37671104 0.18890591 -0.05656273 0.19353984 -0.00727497 0.40012464
-0.7156583 -0.06771301 -0.12529172 -0.33615968 0.884565 -0.15149161 -0.6069999 0.1004678
0.0026345302 -0.7460174 0.12715828 0.11403579 0.2821542 0.40931633 -0.008549451 -0.80855274
-0.13285004 -0.38563076 0.069925666 -0.13786246 -0.040579073 -0.22338057 0.74724895 -0.5859315
0.11425783 0.13474102 -0.0045376145 -0.70283806 -0.4656041 -0.019081434 -0.27857566 -0.19958356
-0.02290197 -0.63473225 0.31478363 0.14391094 -0.23191787 -0.0116508445 -0.008420126 0.9849034
-0.46901572 0.16533017 0.021580422 0.13473476 0.031651583 1.113018 0.08502575 -0.34225684
-0.2746969 -0.34048957 -0.7148715 0.26361412 0.26300514 0.047892686 -0.49396682 -0.040081043
-0.004910733 -1.1938144 0.8622202 -0.067582466 -0.15463968 -0.1341785 0.036097895 -0.78727293

fc1.bias f4 [64]
00000000: 1975 533f 18f0 1a3f 52eb 76be 9ff6 833d
00000010: cd76 323f 9bfd 263f df4e ffbe 8678 6abf
00000020: caec 3ebe b07a f6be a80a 833e e80c d2bd
00000030: e2d9 12bf 7738 593e 5bb2 5e3d 7cb2 debd
00000040: 2d55 b13d e1bd 8c3e 3d87 d83e a384 b4be
00000050: 7f7a 15bf 8b16 143f b378 79be f1da 9d3e
00000060: f249 aebc 58c6 df3d 07bc f9bd 15de 57bf
00000070: cd4f 4bbe 782e fbbd 31f7 8f3f a55a 27bf
00000080: 3fd2 30be fcd3 543f e4bb 5bbe e6db 8cbe
00000090: f03c 193f 051a 443f 35af 97be 9c10 3cbf
000000a0: 02a7 14bf 2cd1 0d3e b0b0 703f 9807 91be
000000b0: 0840 563f 7b5f 9ebe 9e0b fe3d ca64 8cbe
000000c0: b15f 523f 1592 aebc dcca dbbe 5e2d f83e
000000d0: 1f10 20bd 37b6 40bc 5936 0bbf 8411 b7be
000000e0: 53de babd f601 0fbf 995d efbe 9938 90bd
000000f0: b2e8 16bf ffe8 36bf 3585 c43c e107 fabe
0.8260055 0.60522604 -0.24113205 0.064435236 0.69712526 0.6523072 -0.4986486 -0.91590154
-0.18645015 -0.48140478 0.25594068 -0.10256368 -0.5736371 0.21212946 0.05436931 -0.10873887
0.08658824 0.27488616 0.4229068 -0.35257444 -0.5839004 0.578469 -0.2436245 0.30831102
-0.021275494 0.10926503 -0.121940665 -0.84323245 -0.1985466 -0.122647226 1.1247312 -0.6537269
-0.17267703 0.8313596 -0.21458393 -0.2751152 0.5985861 0.766022 -0.2962586 -0.73462844
-0.58067334 0.13849324 0.94019604 -0.28326106 0.83691454 -0.3093222 0.124045596 -0.27420646
0.82177263 -0.021309892 -0.42928207 0.48472112 -0.039077874 -0.011762193 -0.543798 -0.3575555
-0.09124436 -0.5586237 -0.46751097 -0.07042045 -0.58948815 -0.71449274 0.0239893 -0.48834136

fc2.weight f4 [64, 64]
00000000: 2126 40bd 5255 583e 2554 12bf 3702 91be
00000010: df68 e2be ddc4 8bbe 5ccc 7a3a 0b3d 8dbe
00000020: ac4f c2bd fb4d 903d 5f0e 01bf bc14 f4be
00000030: 44e6 54bf 3a5e 64bf 0a8d a1bf 8cfd 623e
00000040: 9106 cdbe 388f 13bf 1417 e7be 885a d63e
00000050: a1bb 03bf 7b89 23be 8454 0fbe c40f 98bf
00000060: 44e1 963d fcf5 81bd 630c eebe 0824 0bbe
00000070: e7ab c2bd 9af0 efbd f7c0 a9bf 933f 8b3e
00000080: 8366 08bf 6f6c d9be 7d21 97bf c206 37bf
00000090: fc44 00bf 5fae 22be 68e3 833e e4a3 053d
000000a0: 7c3d 483e 3f91 67bb 7b10 fbbd 80b5 723d
000000b0: 8d3f 0bc0 1e42 b5be 8877 cabe 883b 22bd
000000c0: fc19 7c3d 6bf2 8fbf 2ba9 6cbf b52b 0abe
000000d0: 3807 a53d 7a40 49bf 648e a93e 8c05 2fbd
000000e0: 35e1 3a3e 0cc6 323e 91ad 15be 5683 cf3d
000000f0: 65d7 c2bf 5210 1cbf f070 debe d7b7 c53e
00000100: 8316 3b3c 33c0 f83d ec10 fabe 148a c5bc
00000110: 77e3 793e f4c5 003e 5996 403e a048 543d
00000120: 4aa9 afbd 3910 8e3e a1ac 14bd 176c c43d
00000130: e89a 65be 9c93 95bd 1d55 803e 022f 82be
00000140: ecd5 9a3e 8597 26bd be9e c0bd 8658 2dbe
00000150: 076a 653e 6a81 9c3e c598 d5bc aece e0be
00000160: 995c 92bd 8ce6 03bf 802a 473e 0595 513e
00000170: 376d 91bd 2670 93bd 40db bdbf e6cd 003e
00000180: 461c 893e d40d 8fbe b8cc 8d3d c632 1ebe
00000190: a7a8 8abe d2f4 a3bc 4bb1 973e dc06 af3e
000001a0: 115b 613e 8ec4 b1c0 65f1 413d fa8a a5bd
000001b0: d7d9 94c0 c47c 12be 1e75 3c3d 8051 cf3b
000001c0: 05b2 91bd 0d5f 3a3f d8d8 083e 302b 403d
000001d0: 8a76 e2bc 6723 03bc b04e 99bc e83e cf3c
000001e0: be08 663e 491f b03e 309f 5abe daf7 013c
000001f0: 1f69 0b3d dd82 6e3e 46df 88bc e3d8 fcbd
00000200: 59b5 9abd e3cb 0ebe 04b3 513d a2c4 b7bd
00000210: 7fb0 bfbd 7bd9 5cbe 35c5 513d b1be babb
00000220: 3ac1 84bd 9dd7 d3bc d1c6 8abb 77b8 03bd
00000230: 4193 9e3d 42a6 9dbd 18a8 d9bd e458 433d
00000240: 64d5 00bd 7927 d2bc 194d 2e3d ed2a 3b3d
00000250: 4a70 cb3d 6b86 91bd 1391 d6bd 20de 543d
00000260: 64ed 523d 8c09 62bd 0058 093d c3be 12bd
00000270: 960e cebd e431 5bbd df79 1e3b 30d3 2abd
00000280: 6fd2 9a3d fc22 1c3d 5db9 eebd 905f f4bc
00000290: 8f8d 09be d61d 88be 0ee1 2abe 3ce0 2fbe
000002a0: ddef f83c 2ce3 31bd 260c 5cbc b04f 213d
000002b0: 1fe3 56be 95c8 bbbd 029e 44be 7044 2b3d
000002c0: 945d 58bd 77bf dcbd 5c75 9a3c 6ab0 c7bd
000002d0: f2cb 8f3d 84bc 40be 07e2 293d 64b7 8e3d
000002e0: 54ee 0ebd 4fe9 65bd c240 843c d93a 1bbc
000002f0: 4997 c3bd b107 c2bd 9b3f d2bd ab01 69ba
00000300: aacb d3be 8a86 33be cd3f 153d e8f6 4fbd
00000310: 284a 7bbe 4b01 2abe f443 c33d 651d 713e
00000320: e893 5e3d facb 403f 99dc f9be 8d37 a83e
00000330: ba24 efbe 74ef 0f3d cfc7 acbd ca07 27be
00000340: b916 e23d ec17 82be c454 59be 9f5c 3f3e
00000350: 361c 9a3e ff76 3e3c 3b74 e23e 93e2 13bc
00000360: 57fa 18be c41e 9d3c b3bb e73d 8fbe 3b3e
00000370: bcb9 653e 385a 903d 8146 00c1 4e90 6c3e
00000380: 94a6 29be f2e6 37be 3bba 923e c7dd e4bd
00000390: 6c33 c73c 8ebd adbe f3f7 1c3f d200 a03e
000003a0: c288 443d 05ce 17c0 7021 12bf fc7b 8b3d
000003b0: 0905 2fc0 c5a5 91bd 1b47 96bd e628 f13d
000003c0: 2f03 d6bd aa31 1dbf 5bae 883e 3f0d 6f3d
000003d0: 8de6 c53d 460e c13d 6dc1 97be 3c21 cdbd
000003e0: eb5f dcbd 1bcc 2e3e d140 dcbe c244 773e
000003f0: e1dc cdbe 7407 083e 608a 44be 49fa 0b3e
-0.046911363 0.21126297 -0.57159644 -0.28322002 -0.44220635 -0.27298632 0.0009567195 -0.27585635
-0.094878525 0.070461236 -0.50412554 -0.4767207 -0.8316386 -0.8920628 -1.2621167 0.22167033
-0.40044072 -0.5764041 -0.45134795 0.41865945 -0.51458174 -0.15970413 -0.13997084 -1.1879811
0.07367185 -0.06345746 -0.46493825 -0.13587964 -0.09505444 -0.11715813 -1.3262013 0.2719694
-0.5328142 -0.4246554 -1.1807095 -0.71494687 -0.5010526 -0.1588683 0.25759435 0.032627
0.19554704 -0.0035334376 -0.12259003 0.059255123 -2.1757538 -0.35402006 -0.3954432 -0.039607555
0.061548218 -1.1245855 -0.9244563 -0.13493235 0.080580175 -0.7861401 0.33116448 -0.0427299
0.18249972 0.17458361 -0.14616992 0.10132472 -1.5221983 -0.609624 -0.4344554 0.3861682
0.011418941 0.12146034 -0.48841035 -0.024113692 0.24403177 0.12575513 0.18807353 0.051827073
-0.08577211 0.27746752 -0.036297444 0.09590929 -0.22422373 -0.07303545 0.25064936 -0.2542649
0.30241334 -0.040671844 -0.09405278 -0.169283 0.22403727 0.30567485 -0.026073823 -0.43907684
-0.07146568 -0.5152366 0.19449806 0.20467003 -0.07100909 -0.07199125 -1.4832535 0.12578544
0.26779383 -0.27940238 0.06923813 -0.15449056 -0.27081797 -0.0200142 0.2962745 0.3418492
0.22007395 -5.5552435 0.047349352 -0.08083148 -4.651592 -0.14305407 0.04601013 0.006326854
-0.07114033 0.72801286 0.1336397 0.046916187 -0.027644414 -0.008004046 -0.018714279 0.02529855
0.22464272 0.3439887 -0.21349788 0.007932628 0.0340358 0.23292108 -0.016708028 -0.12346055
-0.075541206 -0.13944964 0.051196113 -0.089730516 -0.09359836 -0.21567337 0.051213462 -0.0056990017
-0.064821675 -0.025859648 -0.0042351265 -0.03215834 0.0774293 -0.07697727 -0.106277645 0.047692195
-0.031453505 -0.025653588 0.042553995 0.045695234 0.09933527 -0.07105716 -0.104768895 0.051969647
0.051495925 -0.055184886 0.03353119 -0.035826456 -0.10061376 -0.053514376 0.0024181528 -0.04170531
0.07559668 0.0381193 -0.11656449 -0.029830724 -0.13432907 -0.26585263 -0.16687414 -0.17175382
0.030387813 -0.04342954 -0.013430631 0.039382637 -0.20985077 -0.09169117 -0.192009 0.041813314
-0.052823618 -0.107787065 0.01885479 -0.09750445 0.07021321 -0.18821913 0.041475322 0.06968573
-0.034895256 -0.056130704 0.01614416 -0.00947448 -0.0955034 -0.09474123 -0.10266038 -0.0008888493
-0.4136632 -0.17531791 0.0364378 -0.050772578 -0.24540007 -0.16602056 0.095344454 0.2354637
0.054340273 0.75311244 -0.48801115 0.32854882 -0.46707708 0.03514047 -0.08436548 -0.16311565
0.1103949 -0.25408876 -0.21223742 0.18687676 0.30099648 0.011625051 0.44229302 -0.0090261875
-0.14939247 0.01917971 0.11315098 0.18334411 0.22434133 0.07048458 -8.017213 0.23101923
-0.16567451 -0.17959192 0.28657708 -0.11175113 0.024316512 -0.3393368 0.6131584 0.31250626
0.047981985 -2.3719494 -0.5708227 0.068107575 -2.7346823 -0.07111696 -0.07337781 0.11775379
-0.10449826 -0.61403906 0.26695523 0.05836224 0.09663115 0.094265506 -0.2963976 -0.100161046
-0.107604824 0.17070048 -0.430182 0.24147323 -0.4020758 0.13284093 -0.19193411 0.13669695

fc2.bias f4 [64]
00000000: 0509 0cbd 0da7 d33d 9c9b 11be 62db 46be
00000010: 4f4a d8bd 03ae 94be 85b7 babd 10f6 40be
00000020: b3a8 2ebe bdfe 2ebe 69e2 77be dd7a a13d
00000030: bc4b b33d bccc 36bf 04bc 43bc e0ca d8bd
00000040: c07e d3bd f302 023e ec6d 3abd e6aa 9dbc
00000050: 540b 443c 3480 dbbd d88f d73c 42ca c1bd
00000060: b575 13bd d268 aa3b ccc3 063f 83f3 bf3d
00000070: 236a 883e 68f8 aebd 2010 16be 6235 9f3c
00000080: b069 dbbd 9d42 b2be 5e2b 8cbe c749 10be
00000090: a10b 89bd 3d78 10be edfe 5b3e a621 80be
000000a0: 561f b9bd 8503 54be b396 cbbd fc0f 483e
000000b0: b9ea 07be 9a25 393e ae7e a03e 40d8 4dbe
000000c0: b633 aebd e697 e03c ca19 00bd b5bd e4bd
000000d0: cd31 753e 2d7d 8b3c 2c3d 103e 9064 e63e
000000e0: 6af6 5fbd 7f3f 78bd 4f8d b4be 49d6 b8bc
000000f0: e14e 9c3e 8049 173c 1c9e d0bd 5b69 7d3e
-0.03418829 0.10334597 -0.14219517 -0.19419625 -0.10561048 -0.2903901 -0.09117035 -0.18843865
-0.17056541 -0.17089362 -0.24207462 0.078847624 0.087546796 -0.7140615 -0.011946682 -0.1058557
-0.1032691 0.12696438 -0.045514986 -0.01924653 0.011965591 -0.10717812 0.026313707 -0.09462406
-0.036000926 0.005200484 0.5264251 0.09372618 0.26643476 -0.085434735 -0.14654589 0.019434635
-0.10713518 -0.34816447 -0.27376837 -0.14090644 -0.06691671 -0.14108367 0.21483965 -0.25025672
-0.0903918 -0.20704468 -0.09940853 0.19537348 -0.13273133 0.1808075 0.3134665 -0.20102024
-0.08505957 0.02741618 -0.031274594 -0.11168996 0.23944779 0.017027462 0.14085835 0.44998598
-0.05467836 -0.06060743 -0.3526406 -0.022563117 0.3052893 0.009233832 -0.10186407 0.24747221

out.weight f4 [20, 64]
00000000: 8c57 ac3e 296f 2dbf 6856 6bbd e489 81be
00000010: c098 efbc 3e81 8dbd ca36 0d3f 5258 273d
00000020: 18d0 773e b34c 24bf 9e3a 823d 7967 ddbc
00000030: bf5e 133e f7cc b23e f4c9 febe d517 a7be
00000040: 3565 f53b 8f0d 8fbd 98d8 1cbf 1355 3a3e
00000050: 9975 2fbe ab30 223e 36ba a73e f72f 25be
00000060: 9adc 36be 6846 3abe deba 293e 3b6a 83be
00000070: 43d0 b13c 1be5 91be c2c9 8f3d 3421 8e3d
00000080: 4ceb 7ebd 5b6d 8c3e 9502 87be fafc 3fbc
00000090: 80ce c83d ca8d 013e 3b9d a6bd 5703 4f3e
000000a0: 080f 173f 147b f5bc f719 743e 1e57 d03e
000000b0: 52bb 0e3e bd51 aabe df13 923e 176e 3dbe
000000c0: e57e 52be 600c 513d 99c6 1e3e 028d 393d
000000d0: af36 f5be 08db 593e 8c88 a6be ab6b 9f3e
000000e0: 0c9b 4c3c 12dc 2ebe fc2b ea3d 884c 13be
000000f0: 715d 6abf 4351 e13d 6f16 aa3e 3fdc 5e3e
00000100: 7e0d 413e 330d e5be 41d6 ff3c 851c 203e
00000110: 3f83 fbbd 3b72 33bd bafa fc3e c036 74be
00000120: db24 90bd 80a4 25bf d1e5 7dbd 4317 5e3d
00000130: c2b2 133e 2736 9c3d 6512 9cbe 9f4e 77be
00000140: 0f75 e33b 4b48 75bd 81e0 f2bd dafa 553d
00000150: e50b ffbd b89c c93c 8d46 913e 9484 b43d
00000160: 39a4 50be a041 1a3f f240 d73d 5e57 f83d
00000170: 9d05 6dbc a74b 32bc fe36 aa3d 9c8c 6abd
00000180: 702a df3d 67b3 803e d0a2 90be d192 8b3d
00000190: eec4 89be 4e3a dcbc decf b63c 2dcf 823e
000001a0: 08ef 393f 1bdf 023e d424 ad3e 7b82 233f
000001b0: 508e 6bbd 6746 91be 365e a43c 5017 80be
000001c0: a26c 83be 4ca6 e5bd 2ecd b73d 96ca 473e
000001d0: d4f6 a8bd d4a3 d33d 86a4 b5be 4f9e 363e
000001e0: 2378 ba3b 192e abbd b7af 38be 2cba a7bd
000001f0: 0651 bdbe 3dd0 883d 5754 5b3e ef39 2f3e
00000200: 2272 133e 4d40 c7be 7276 c43d 020f 63be
00000210: 9202 12be d840 013b b590 1e3f 5cc8 42bc
00000220: 2e84 883e 1294 ecbe 392f 18be f50b e7bd
00000230: 9054 2c3c e89e 393e 08bd d9be d040 18bd
00000240: d377 063e 50f5 54bd 2398 06bf ab50 9e3e
00000250: 7178 fcbb 77a4 6e3c 19ff 513e d669 0cbe
00000260: 887d c5be 260d f23e 89fd 9b3e d8fe 89be
00000270: 254d 8cbd 8d32 b4bd c00e 9a3c 7a5a 97bc
00000280: 0a66 a63c 2f8a 2f3e e499 9cbd 6cfb c8bd
00000290: 84a0 9abe c52b d9bc 8006 003e 926e d93e
000002a0: 7009 b93e 68f2 9e3d 52b4 8e3e 4d5e 2b3f
000002b0: 2f32 5c3e 0271 c7be 3905 713d 8b0f 46be
000002c0: 3483 25be 20a8 883e 5585 433d be8d 033e
000002d0: 7d28 b9be 7c70 bd3d b16f babe 0f15 323e
000002e0: d0c9 3a3d 9d5c a6bd d138 b53c 1450 463d
000002f0: 51bc e0be bb11 963d 76eb c03d 45ee 373e
00000300: fdde 123d 23de a2be 2fd7 cfbc de81 30be
00000310: ec5f f1bd f3ec e1be 741a 133f bc95 bfbb
00000320: 48be 723d 8fcb 07bf daf3 4c3e e846 86bd
00000330: b8ab f73d 1403 693e 8072 94be 6d8a 683d
00000340: 8d5a 8a3d fdf1 eabd b0c9 b7be 806b 853c
00000350: ff59 24bf 246e 963e d857 c53e 793b 803c
00000360: b365 f2bd 0be3 013f 4090 333e c34a 96be
00000370: 81e2 09be 37f0 0cbe 2411 d83d b1bf 7e3c
00000380: 6c97 ff3d 4c6b 783d efa4 debc 2b8d 0b3e
00000390: e707 c0be d5be 91bd aa46 10bd 617f 583e
000003a0: 8e64 7b3e 12f5 4cbd 7363 6cbc bd03 f53e
000003b0: cdf2 04be 66ef e1be f113 903c 36b2 5ebd
000003c0: ce39 c7be 0239 8e3d 8b10 aa3d f043 e53c
000003d0: 848c aabe e962 0d3e 6c55 c9be 74d2 323e
000003e0: d901 9f3c 4ddd 2ebe 05d4 05be 90ef b5be
000003f0: 0dcf 86be ce6b 6cbc 8b34 0f3d 2ce2 c63d
0.33660543 -0.6774774 -0.05745545 -0.25300515 -0.029247642 -0.069094166 0.55161726 0.040855713
0.24200475 -0.64179534 0.063588366 -0.027026879 0.14391612 0.34922 -0.49763453 -0.3263537
0.0074888715 -0.06985008 -0.61267996 0.18196516 -0.17134704 0.15838878 0.32759255 -0.16131578
-0.1785759 -0.1819092 0.1657519 -0.25666985 0.021705752 -0.28495106 0.07020904 0.06939927
-0.062236115 0.27427182 -0.26369157 -0.011718029 0.09805012 0.12651744 -0.08135458 0.20216118
0.5900731 -0.029965915 0.2383803 0.40691465 0.13938645 -0.33265486 0.28530785 -0.18499027
-0.20556219 0.051037192 0.15505446 0.04530049 -0.47893283 0.2127496 -0.32526052 0.31136832
0.012488138 -0.17076138 0.114341706 -0.14384663 -0.9154883 0.110018276 0.3322024 0.21763705
0.18852803 -0.44736633 0.031230094 0.1563588 -0.122808926 -0.04381011 0.4941004 -0.2384901
-0.070382796 -0.6470413 -0.061986748 0.054221403 0.1442366 0.07627516 -0.30482784 -0.24151085
0.0069414447 -0.059883397 -0.11859227 0.052241184 -0.124534406 0.024610862 0.28374138 0.0881435
-0.20375146 0.60256386 0.10510434 0.12126039 -0.01446667 -0.010882295 0.0831127 -0.057263
0.10896766 0.25136873 -0.28249216 0.068151124 -0.26908058 -0.02688327 0.022315916 0.25548688
0.7263036 0.1278042 0.3381716 0.6387097 -0.057508767 -0.28374025 0.020064455 -0.25017786
-0.25668818 -0.11213359 0.08974682 0.19510874 -0.08250204 0.10333982 -0.35477084 0.17833827
0.005690591 -0.08358402 -0.1803578 -0.08189806 -0.36975878 0.06680343 0.21418892 0.17111944
0.14399007 -0.38916245 0.09592904 -0.22173694 -0.14258793 0.0019722488 0.61939555 -0.01188859
0.26663345 -0.4620672 -0.14861764 -0.112815775 0.010518208 0.18127024 -0.42527032 -0.037171185
0.13131647 -0.05199176 -0.5257589 0.3092092 -0.0077047874 0.014565579 0.20507468 -0.13712248
-0.38572335 0.47275656 0.3046687 -0.26952243 -0.06850652 -0.08798704 0.018805861 -0.01847576
0.020312328 0.17142557 -0.0764654 -0.0981358 -0.3020059 -0.026510129 0.1250248 0.4246717
0.36140013 0.07761079 0.27871948 0.66940767 0.21503519 -0.38953406 0.05884287 -0.19341867
-0.16163331 0.2669077 0.047734577 0.12847039 -0.36163703 0.0924997 -0.3641334 0.17390846
0.04560262 -0.08123133 0.022121819 0.048416212 -0.43893674 0.073276006 0.094199106 0.17961986
0.03585719 -0.31810102 -0.025371162 -0.1723704 -0.11785874 -0.4412609 0.5746224 -0.005846707
0.059263498 -0.5304498 0.20014897 -0.06556493 0.120932996 0.2275508 -0.28993607 0.056772638
0.067555524 -0.11471937 -0.35896063 0.016286612 -0.64199823 0.29380906 0.38543582 0.015653359
-0.11835804 0.50737065 0.17535496 -0.29353914 -0.1346531 -0.1376351 0.10550144 0.0155486325
0.12480053 0.0606492 -0.027178256 0.1362807 -0.3750603 -0.071164764 -0.03522364 0.21142341
0.24550077 -0.050038405 -0.014428007 0.47854415 -0.12983246 -0.4412796 0.017587634 -0.054369174
-0.3891129 0.06944467 0.083039366 0.027986497 -0.3331033 0.13807262 -0.39322984 0.17463094
0.01941006 -0.17076607 -0.1306916 -0.35534334 -0.26329842 -0.0144299995 0.03496222 0.097111076

out.bias f4 [20]
00000000: fe21 64bd 42fc 3ebd cb06 87bd 2065 243d
00000010: 11a2 db3c 6485 8f3d a4c0 023e 31e1 203e
00000020: a419 903e 18ac 18bd e2f9 0c3e c048 2e3e
00000030: 60b6 043e 0dc6 203e cff0 6c3e 6b67 3c3e
00000040: 9e3f 723e c565 8e3e 62a4 9d3e 311f 913e
-0.05569648 -0.04662729 -0.065930925 0.040135503 0.026810678 0.07007864 0.12768799 0.15710904
0.28144562 -0.037273496 0.13767198 0.1701994 0.12960196 0.1570055 0.23138736 0.18398826
0.2365708 0.2781202 0.30789477 0.2834411
